models/exo_cnn.pth (torch, 26501 bytes, 10 tensors)

conv1.0.weight f4 [8, 1, 9]
000000 95 1b 33 bd 4a 21 3b 3e c9 8a 76 bd 84 62 04 be
       -0.043727476 0.18274418 -0.06019095 -0.12928206
000010 d1 a6 13 3e ca 04 60 3d 20 23 41 be 9a ff 66 3e
       0.14419104 0.054692067 -0.18861055 0.22558442
000020 1d cc d1 bd 24 72 bc be f6 7c aa 3e 07 54 09 3e
       -0.1024401 -0.36805832 0.33298463 0.1341096
000030 b3 66 c0 3e 12 c6 5c be b5 4e 6b 3e 8e 42 2a 3e
       0.37578353 -0.21559933 0.22979243 0.16626951
000040 23 c5 22 bd 7b 38 c6 bd 61 e8 c7 3e 68 67 0d be
       -0.039738785 -0.096787415 0.3904448 -0.13808978
000050 f1 6c 3e be ca 6d 8c 3e 9e 60 14 be d5 a5 5e bd
       -0.18596245 0.27427512 -0.14489982 -0.05435737
000060 6f e0 42 bd e2 31 ec bd 26 1e e1 3e 71 bd 67 3e
       -0.047577318 -0.11532952 0.43968314 0.2263086
000070 b1 97 02 bf 33 53 16 bf 37 87 10 bf 47 ea 83 be
       -0.5101271 -0.587207 -0.5645632 -0.25764677
000080 25 ef f7 bd 0b f4 08 bf 5d 95 06 be 7b 4e 0b bf
       -0.1210616 -0.5349738 -0.13142915 -0.54416627
000090 86 73 1e 3e c9 83 03 be 49 20 0a 3d a4 e4 15 3e
       0.15473756 -0.12843241 0.033722196 0.14638
0000a0 4d 02 bf bd d1 26 fb bd 08 0f 50 be a0 b1 bf 3e
       -0.09326611 -0.12263263 -0.20318234 0.37440205
0000b0 e1 40 1b bd 13 67 63 bb 63 ff 22 be 41 68 2d bd
       -0.03790367 -0.0034698888 -0.15917735 -0.042335752
0000c0 e7 69 bb 3b a1 a1 8e bc ea 40 71 be 81 7c c3 3c
       0.0057194117 -0.017411055 -0.23559919 0.023863079
0000d0 ed de 2a 3e 4f 97 90 3e 84 ec 29 3e 02 e6 b3 3e
       0.16686602 0.2824044 0.1659413 0.3513642
0000e0 06 68 b7 3e 13 b6 94 3e 9b 39 86 3e de 6c 4e 3e
       0.3582155 0.29045162 0.26215824 0.20158717
0000f0 16 b4 aa 3d b1 d3 9a 3e 59 36 96 3e 78 28 8d 3c
       0.0833513 0.30239633 0.2933834 0.017231211
000100 71 47 bd be 4b 44 da be bc 77 04 bf ac 69 1e bf
       -0.36968568 -0.42630228 -0.517452 -0.6187999
000110 ae 5d 0d bf de c1 99 be c4 44 08 3e fb 9e f0 be
       -0.5522107 -0.3003072 0.13307482 -0.46996292

conv1.0.bias f4 [8]
000000 2a b7 de 3e b9 f9 5d bd d7 54 e3 bd f9 23 b5 be
       0.43499118 -0.054193232 -0.11100166 -0.35379007
000010 61 71 c2 3e 11 ee 36 3f 30 4d 5d 3d 08 1d bf be
       0.37977126 0.7145701 0.05402869 -0.37326837

conv2.0.weight f4 [16, 8, 5]
000000 cf 20 4c be f4 e1 f0 bc 31 fe 78 bd f8 44 c2 3d
       -0.1993439 -0.029404618 -0.06078929 0.09485811
000010 5d 34 64 3c ba f0 c1 bc 80 77 14 bc 64 6e 9f 3d
       0.0139285 -0.023674358 -0.009061694 0.07784727
000020 50 3b 85 be a9 f1 bf bd ec 70 78 bd 75 fe 3f 3e
       -0.26021814 -0.09372265 -0.060654566 0.18749411
000030 0b 21 f9 3d 5c b2 ca bd 50 8f 11 3e eb 5f 87 3e
       0.121645056 -0.098973006 0.14214826 0.26440367
000040 b1 c0 c3 3d 95 31 4e 3e b0 74 55 3e 45 4b 2a 3e
       0.09558237 0.20136102 0.20845294 0.16630276
000050 bb b6 21 be 68 fb a8 3d cd 38 07 bd 94 6d ce bb
       -0.15792362 0.08251077 -0.033013154 -0.006299684
000060 e0 a7 79 be f5 a0 85 bc 2f 9a 4d 3d d4 97 50 be
       -0.24380445 -0.016312102 0.05019587 -0.20370418
000070 33 e1 3c be 08 38 26 be 91 6a 0d bd 19 80 f1 bd
       -0.18445282 -0.16232312 -0.034525458 -0.11792011
000080 8b 04 42 be d2 e0 cc be 81 59 33 be 9b 3b 5b 3d
       -0.18947046 -0.40015274 -0.17514612 0.05352364
000090 96 57 8e bd 47 51 22 3e c1 f8 90 3d e8 38 85 bd
       -0.069502994 0.15851317 0.07078696 -0.06504995
0000a0 3b 8c b3 3d 46 74 0b 3e a9 7d b6 bd 5a 56 9c bd
       0.08766981 0.13618574 -0.089106865 -0.07633658
0000b0 8d 8a 89 bd 5f 39 5d 3d f3 c7 fb 3d 27 e9 5a 3e
       -0.067158796 0.05400979 0.12293997 0.21378003
0000c0 d9 6a 45 3e 33 10 09 bc 78 06 99 3e f0 b2 df 3d
       0.1927904 -0.008365679 0.29887748 0.109228015
0000d0 15 7d 5a bd 2d 62 3b 3e 48 6a 87 3e b3 f6 da 3b
       -0.053341944 0.1829917 0.26448274 0.006682241
0000e0 34 8f 0c be 33 37 2f 3e e4 bc e9 bc 87 c6 a0 bd
       -0.13726503 0.171109 -0.028532453 -0.07850366
0000f0 27 b3 b9 bc fe 61 dd 3c 45 55 79 3d bf e1 df 3d
       -0.022668434 0.027024265 0.060872335 0.109317295
000100 13 77 ae 3d c2 95 07 3c 9d af c6 bd 0a 4d 7d bd
       0.08518805 0.008275451 -0.09701464 -0.06184105
000110 66 d2 f6 3d 1e 89 8b 3d 98 df 05 3e c6 9e 5d 3d
       0.12051849 0.068132624 0.13073575 0.054106496
000120 02 ec 07 3d 80 52 27 be aa 96 18 bd 72 58 ae bd
       0.03318406 -0.16340065 -0.03725306 -0.08512963
000130 c7 e5 19 be da 5a 2c 3e 9e 3a fc 3d 4e 42 3b 3e
       -0.1502906 0.16831532 0.12315868 0.18287012
000140 0e d7 44 3d 8c e3 bf 3c bf 99 27 be bf 47 13 bc
       0.048056655 0.023423932 -0.16367243 -0.008989274
000150 47 7b b6 be 34 a4 06 be ae 8b 1e be 80 05 93 3b
       -0.35640928 -0.13148576 -0.15482971 0.0044867396
000160 dc d9 4c be 6e 14 8e 3d 1d 70 af 3e 9d 84 b0 3d
       -0.20004982 0.069374904 0.34265223 0.08619044
000170 4e 45 1d be 81 5e f5 bd 2f a6 65 be 5b 15 e9 be
       -0.15358469 -0.11980916 -0.22426675 -0.45524105
000180 54 dc 64 be 63 5d 6b 3e 9c ae 6f 3e b8 6f ca 3e
       -0.22349674 0.22984843 0.23406452 0.3953836
000190 83 ef 94 3d 4d d7 2c be 5f 0b c6 bd b8 e4 6c 3d
       0.07272246 -0.16879006 -0.096701376 0.05783531
0001a0 2e 5a a6 be 64 f0 d1 be 0e c4 31 be ac 0a b4 be
       -0.32490677 -0.41003716 -0.17359945 -0.35164392
0001b0 73 ab b0 be 0d 2f c1 bc c6 f1 90 3e 4c b6 7a 3e
       -0.34505805 -0.023582006 0.28309458 0.24483603
0001c0 cc 48 fb 3d 86 7a 89 3b 19 10 d8 bd 09 e4 9d be
       0.12269744 0.004195514 -0.105499454 -0.3083804
0001d0 03 22 8d be b6 b8 08 3e 3f 59 b2 3d c7 5a e3 3e
       -0.2756501 0.13351712 0.087084286 0.44405195
0001e0 38 50 6a be cd 02 15 be 8a f6 d9 bd fd 7f 20 bd
       -0.22882164 -0.1455185 -0.10642727 -0.03918456
0001f0 e4 bc 14 3d 32 cc f2 bd d1 0e ec bd 87 1c 0f 3e
       0.036312953 -0.118553534 -0.115262635 0.13975726
000200 56 18 43 3b 49 4a af 3c 63 7b b8 3d 74 bb 08 3d
       0.0029769144 0.021397727 0.09007909 0.033381894
000210 3b 18 3a 3d 90 11 df 3d 93 67 59 3e 3e bb 74 3e
       0.045433264 0.10892022 0.21230917 0.23899552
000220 76 40 a9 3d b8 e9 59 3d 7b f7 3b 3c b4 f5 6e be
       0.08264248 0.053201407 0.011472578 -0.23335916
000230 a7 86 1a be af c1 7f bd 54 77 cb 3c 13 dd 80 3d
       -0.15090428 -0.06244057 0.024837174 0.062921666
000240 b0 9f 04 3e 31 df 49 be c2 f4 3e bd 58 47 25 bd
       0.12951541 -0.19714047 -0.046620138 -0.04035124
000250 d8 81 39 be 14 c6 39 3d a0 05 41 bb bf 6e 49 3d
       -0.18115938 0.045354918 -0.0029452816 0.04917788
000260 a9 e8 42 be 4e 1c fa 3d e7 35 33 3e 7a 91 d2 bb
       -0.19034065 0.1221243 0.17501031 -0.0064260336
000270 fb 40 21 bd 6c f7 1a 3e 4b b3 41 be d3 c8 25 be
       -0.03936861 0.15133446 -0.18916051 -0.1618989
000280 8b 52 35 bc 11 24 51 bd e2 27 07 be bd 40 b7 bd
       -0.011067043 -0.051059786 -0.13198808 -0.08947895
000290 69 57 c5 bd 70 f9 dc 3d 6f 6a 47 3e 63 a4 fd bc
       -0.09635813 0.10789764 0.19474195 -0.030962175
0002a0 45 c1 59 3e 99 96 04 3e 24 7a a7 3d 1d 89 50 3e
       0.21265133 0.12948073 0.08177593 0.20364805
0002b0 79 0e a7 3d 03 17 f1 3c 21 c5 ee bc 9e d2 79 3b
       0.08157057 0.029429918 -0.029146733 0.0038119922
0002c0 0d 89 6e 3d 90 13 22 3e 86 f9 84 bd 41 d4 86 3e
       0.05823617 0.15827775 -0.06492905 0.26333812
0002d0 0d 57 8c 3c 1b 64 1a 3d b8 32 2d bd 9c df 34 bd
       0.017131353 0.037693124 -0.042284697 -0.044158563
0002e0 c1 6e c7 bd b7 df 59 bb 87 33 a8 3d 7a 6b da 3c
       -0.097379215 -0.0033244917 0.08212953 0.026662577
0002f0 ed ff 11 3d a2 4d 1e be 11 a2 3c 3d 13 6a e8 bd
       0.03564446 -0.15459302 0.046052996 -0.11348357
000300 d4 3e 3a be a4 b3 07 be ab df 77 be 0b 15 9e 3c
       -0.1818803 -0.13252121 -0.24206416 0.019297143
000310 8b ef 6c 3e 7b c9 bd 3b 7e 1e b2 3c 03 c6 70 3e
       0.23138253 0.0057918406 0.021743055 0.23513035
000320 1c 8b 50 bb 19 cb ce 3d 5f d1 2f 3e c6 de e7 3d
       -0.0031821197 0.100973316 0.17169712 0.113217875
000330 6f 72 f0 3d 32 b0 47 3e 3d f6 bc 3d ca 54 59 bd
       0.117405765 0.19500807 0.09226654 -0.053059377
000340 3f cc 93 3c c4 f2 f0 3d cf d6 2e 3d 5f 6c c6 3d
       0.018041728 0.11765054 0.042685326 0.09688639
000350 2e ed 27 3e ad d5 7f 3c d9 c4 41 3e 56 6c 79 be
       0.1639907 0.015614909 0.18922748 -0.24357733
000360 c0 71 20 be 97 47 a3 be 67 04 74 3d 72 6f a3 3c
       -0.15668392 -0.31890556 0.05957451 0.019950602
000370 43 c2 1f bb c4 e1 b6 bc 2f 7f 33 3e 8d 1b c6 bd
       -0.0024377264 -0.02232445 0.17528985 -0.09673224
000380 14 15 21 3e e8 6b fc bd d5 ce 35 bc 2f c3 29 3d
       0.15730697 -0.12325269 -0.011096676 0.041445907
000390 9b e9 1d be ef 41 17 3d e7 82 12 3c 7b 29 f9 bb
       -0.15421145 0.036928114 0.008942342 -0.007603822
0003a0 6c 73 46 3e 5e 9a 5b bd 8d 0c 04 3e 11 5f 4a be
       0.19379967 -0.053614013 0.12895413 -0.19762827
0003b0 52 1d 9f be 18 35 89 bd 67 7e 23 be d0 64 22 be
       -0.31077057 -0.0669958 -0.15966187 -0.1585877
0003c0 05 b2 ff be 9c a2 85 be e3 22 03 bf 8c f1 db be
       -0.49940506 -0.26100624 -0.5122511 -0.42957723
0003d0 b7 87 bc be c7 78 af be d7 6f 1a bf 46 18 af bd
       -0.36822292 -0.34271833 -0.60326904 -0.08549552
0003e0 62 12 59 3a df ec 9f be 0d d9 19 be c3 1e 3b be
       0.00082806323 -0.31235406 -0.15024205 -0.18273453
0003f0 61 e1 7f be 6a b5 dd be f6 bc 52 be c6 42 80 3e
       -0.24988319 -0.4330247 -0.20579895 0.25050944

conv2.0.bias f4 [16]
000000 07 f5 e0 bc b1 c3 0a be 34 be 9c bd 10 cb a5 be
       -0.027460588 -0.13551213 -0.07653466 -0.32381487
000010 b4 c7 3e be 6c a1 10 3e 36 2d cf be de e7 86 be
       -0.18630868 0.14124078 -0.4046418 -0.26348776
000020 b8 11 07 bd 27 e9 e0 bd 1b 8b 3c bb f6 18 d6 bd
       -0.032975882 -0.1098197 -0.0028769437 -0.1045398
000030 42 05 5a 3e 6b 63 b5 bc f9 73 15 3e 17 86 d4 be
       0.21291068 -0.022142133 0.14595021 -0.41508552

conv3.0.weight f4 [32, 16, 5]
000000 85 8d 57 be 8f 07 7b be 3e fb 2b bd 8f 2e 28 be
       -0.21050079 -0.24514602 -0.04198765 -0.1642401
000010 36 5d 94 be ee ec 49 3e ab 56 1c 3e a7 47 5b 3d
       -0.28977364 0.19719288 0.15267436 0.05353513
000020 9f 5e 7a 3d 53 d0 9e 3d 54 29 83 be 22 14 2b be
       0.061125394 0.077545784 -0.25617468 -0.16706899
000030 b4 1d 94 be d4 16 af be 43 94 a6 be f5 4d 82 be
       -0.28928912 -0.34197104 -0.3253499 -0.25450101
000040 90 3e c8 bd 1f 91 21 be 68 3f 84 bd 8a 50 59 3a
       -0.09777558 -0.15778016 -0.06457406 0.00082898943
000050 5a fb 01 bd 3f 12 b8 bd 94 82 95 bd 4e 8b 72 be
       -0.03173385 -0.08987855 -0.073002964 -0.23685953
000060 4b 71 82 be e0 10 cd 3d 7f a5 be 3c 47 ce 9c 3d
       -0.2547706 0.10012984 0.023272274 0.07656532
000070 de 7a 4a 3e 60 55 0f 3c 3d 4d d2 be 61 33 98 be
       0.19773433 0.008748382 -0.41074553 -0.297267
000080 8d df 83 be 7e 4b 65 be f9 0c cd be 9d 27 92 be
       -0.25756493 -0.22392079 -0.4004896 -0.28545848
000090 89 72 f4 bd 69 d1 2c be 7a ff 37 be b3 04 5d bd
       -0.11935908 -0.16876759 -0.1796855 -0.05395956
0000a0 94 33 8b bc 4c f7 51 3d 5a 50 0e 3d 18 8f 0c bd
       -0.016992368 0.05126123 0.034744598 -0.034316152
0000b0 0b db 51 3d 67 c3 1c be 26 a3 f6 bd f3 c1 60 bd
       0.051234286 -0.15308915 -0.12042837 -0.054872464
0000c0 87 b2 b7 bd 32 1c 8e bd e2 de 07 3e 55 37 8f 3d
       -0.08969598 -0.069389716 0.13268617 0.069929756
0000d0 9d dc e2 bb 40 5c 73 3d 58 92 86 3d e1 48 0f 3d
       -0.006923272 0.05941415 0.065708816 0.034981612
0000e0 fb ad e4 3c d6 93 c4 3d 3c ef ea bc 8e 12 06 3e
       0.027914992 0.0959851 -0.028678529 0.13093016
0000f0 42 af 0c be 48 d8 c4 bd 07 46 71 be ae 3b a0 bd
       -0.1373873 -0.09611565 -0.2356187 -0.07823883
000100 da 07 83 be 0b dc cf be c5 5b 99 be 76 96 92 be
       -0.25591928 -0.40597567 -0.29952827 -0.28630418
000110 ae 7b aa be c7 f5 f5 be dd 05 22 3d 77 c2 50 3e
       -0.33297485 -0.48039076 0.039556373 0.20386682
000120 02 5a c7 3c 1b 0e 08 3e 35 ce 1b 3e 55 bd e0 bd
       0.024334911 0.13286631 0.1521538 -0.10973612
000130 c7 16 96 bd 08 4d 1b be ee 71 1f be f2 f3 e2 bd
       -0.07328563 -0.15166104 -0.15570804 -0.11081685
000140 e6 73 ff bc bf 73 a0 3d 91 72 80 3d f4 1d f7 bc
       -0.031183194 0.07834577 0.06271852 -0.03016565
000150 94 1b 4e 3e 0d f1 61 be 5d ca 2a be 8c 15 ef bd
       0.20127708 -0.2206461 -0.16678758 -0.116740316
000160 1c a4 a2 bd 34 42 34 be 7d a6 92 3e c3 09 b0 3d
       -0.07941458 -0.1760338 0.28642645 0.08595612
000170 41 a2 26 3e 28 47 30 3d cd 2e a9 3c 99 47 0c 3d
       0.16272832 0.04303661 0.0206522 0.03424797
000180 16 82 14 3e 93 e8 43 3d a9 ec 27 3d 91 32 e6 3d
       0.14502749 0.047829222 0.04099718 0.112401135
000190 f7 56 10 bd 56 4e c0 bd b9 81 e6 bd 1c 8a c7 bd
       -0.035239186 -0.093899414 -0.112552114 -0.09743139
0001a0 34 da 56 bd e5 f2 06 be 69 73 91 bd f0 95 83 be
       -0.05245419 -0.13178594 -0.07102091 -0.2570033
0001b0 23 e0 77 be 46 b6 4b be b9 69 3d 3f af 4c 2e 3f
       -0.24206595 -0.1989375 0.73989445 0.6808576
0001c0 b9 16 45 3f df f6 3b 3f 31 69 25 3f 30 fa 1d 3e
       0.769878 0.7342357 0.64613634 0.1542747
0001d0 fc 27 af 3d 1d 39 f0 3d bd a7 06 bd 84 cc 86 3b
       0.08552548 0.117296435 -0.03287481 0.0041137356
0001e0 a2 81 6d bc c2 36 97 be 54 ed a5 be 79 f5 62 be
       -0.014496239 -0.29533964 -0.3240763 -0.22163953
0001f0 41 30 f3 be ec d0 1b 3d 97 cf c9 3d 71 69 05 3e
       -0.47497752 0.03804104 0.09854048 0.13028504
000200 6b 2c 57 3d d3 9b f8 3d bf 9f 61 be e6 6e 58 bd
       0.052532595 0.12139096 -0.22033595 -0.052840136
000210 8d 45 b5 bd c5 9a 29 be a1 ea 95 be 35 75 cf be
       -0.088511564 -0.16562946 -0.2928057 -0.4051911
000220 a8 69 03 bd bb 6d 8e bd bd 2e 9f 3b 13 c6 8f bc
       -0.032083184 -0.06954523 0.0048578666 -0.017550504
000230 99 d9 c6 bd aa 38 92 be 8b 73 24 be 4f c4 88 be
       -0.09709472 -0.28558856 -0.16059701 -0.26712272
000240 d2 e8 c1 3e 8f 48 30 3e 51 7e 0a 3e e4 6c 9d ba
       0.3787294 0.17215179 0.13524748 -0.0012010601
000250 d1 8a 10 3e d7 c3 0d 3e 65 17 44 be e5 31 21 be
       0.14115454 0.13844238 -0.1914955 -0.1574169
000260 b5 34 0d bd 67 80 80 be bc bc e0 bd bc 53 81 3e
       -0.034474093 -0.25097963 -0.10973498 0.25259197
000270 01 a2 ab 3d a7 02 b8 3d aa f4 9f bc 07 21 ba bd
       0.08380509 0.08984881 -0.019525845 -0.09088331
000280 ba 48 1f 3e 99 21 0b 3e e4 a6 ef 3d 8a cf ca 3c
       0.15555087 0.13587035 0.11701754 0.024757165
000290 e0 c8 6c 3e 1e 3c c5 bd 2d 7c 8e 3b a3 3d dd bd
       0.23123503 -0.09630607 0.004348299 -0.10802772
0002a0 b7 ef d2 bd 90 74 b0 3c 3d 0c 82 3e bb 00 02 be
       -0.10299628 0.021539956 0.25399962 -0.12695591
0002b0 d8 9d a9 3d 31 04 9c 3d 14 a9 46 3e 04 07 27 3e
       0.082820594 0.07617987 0.19400436 0.1631127
0002c0 ea df 0b 3e ab bd e8 3d ff f9 3f bd 09 c4 18 3e
       0.13659635 0.11364301 -0.046869274 0.14918531
0002d0 63 99 93 bc 42 93 1b 3b c6 57 b8 3d 90 f0 f6 3d
       -0.018017476 0.0023738896 0.090011165 0.120576024
0002e0 8d 0f 3f 3e bc 68 e0 be 71 26 b0 be 82 a7 d8 be
       0.18658276 -0.43829906 -0.34404328 -0.42315298
0002f0 60 05 9d be 0b 3c 95 be d3 52 24 3f db 94 14 3f
       -0.30668163 -0.29147372 0.6418888 0.58039635
000300 74 8a 24 3f 43 0f 1c 3f 2c e7 12 3f 0e 29 2c 3e
       0.6427376 0.6096079 0.5738399 0.16812536
000310 36 06 f5 3d 3d 4c 3c 3e 68 61 d9 3d ca 76 0d bd
       0.11964075 0.18388458 0.10614282 -0.034537114
000320 16 bb e4 3d ba b7 8f be 4e af 5f be c4 a6 26 3d
       0.11168496 -0.2806986 -0.21844217 0.040686384
000330 cf e7 e2 be 17 7c 1c 3e dc 4f 5c 3c b0 b8 9e 3d
       -0.4431748 0.15281712 0.013446774 0.0775007
000340 43 c1 0c 3e b6 20 c7 3d e5 05 07 bf 30 52 2b be
       0.13745598 0.09723036 -0.5274337 -0.16730571
000350 ac bf 52 be 51 9e 74 be 37 13 79 be f5 1f 5b be
       -0.2058093 -0.23888518 -0.24323736 -0.2139891
000360 3f bf 10 3e fb 63 45 be b6 20 10 3e 4b c4 5f be
       0.14135455 -0.19276421 0.14074978 -0.21852224
000370 f9 9c dd be 1f fc ad be 54 3d 42 be a1 6f b1 be
       -0.43283823 -0.33981416 -0.18968707 -0.3465548
000380 46 d4 ca 3e 65 fd 01 3e 5f 3e 3d bc ae 0b 26 3e
       0.39615077 0.12694319 -0.011550515 0.16215393
000390 06 c5 20 3e 59 bf 19 3e ab bd 12 bf b2 3f ae be
       0.15700158 0.150144 -0.5732066 -0.3403297
0003a0 1e 03 95 be 14 f1 ae be 2e 26 7d be ca f4 2e 3e
       -0.2910394 -0.34168303 -0.24721596 0.17085567
0003b0 10 e8 4f 3d a9 97 26 bd d5 56 ce 3d db 8a 34 bd
       0.05075842 -0.04067198 0.10075156 -0.044077735
0003c0 2e cf 11 be ab 54 80 be 93 20 68 be 06 15 2a be
       -0.14239189 -0.25064597 -0.22668676 -0.16609582
0003d0 09 e3 82 be e8 61 5c 3d 52 97 02 3d 8c ff 4a 3e
       -0.2556384 0.05380431 0.03188259 0.19824046
0003e0 3d d1 16 3c 87 1b ac 3d 71 95 36 be 58 2a 37 be
       0.00920516 0.08403688 -0.17830445 -0.17887247
0003f0 93 36 53 be f9 65 9f be c4 b0 16 bf 77 12 90 be
       -0.20626287 -0.31132486 -0.5886347 -0.28139088

conv3.0.bias f4 [32]
000000 60 ca f3 3c 63 be 2c be 9b 0a 93 be dd 2d 61 3d
       0.029759586 -0.16869502 -0.2871903 0.05497538
000010 6a 63 64 bd 14 a6 24 3e 7b be 29 be 66 cf 71 be
       -0.05575887 0.16078979 -0.16576569 -0.23614272
000020 f2 41 8e 3d 3e 73 7c be f7 da 81 be d5 41 c0 bd
       0.06946172 -0.24653336 -0.2536237 -0.093875565
000030 23 ef f0 bb e9 bb 3e 3b 12 28 f6 bd 90 3f e5 bd
       -0.007352726 0.0029103702 -0.120193616 -0.11193764
000040 53 5d c0 bd f6 6c ca 3d e4 fd 1c 3d 03 ca 70 3d
       -0.093928 0.09884064 0.038328066 0.058786403
000050 50 a1 9a bd 88 76 05 be 03 d4 f0 bc d2 80 88 bd
       -0.07550299 -0.13033497 -0.02939797 -0.066651955
000060 35 b9 8c 3b 62 37 5e be 43 95 84 3c 6b a3 e4 bc
       0.0042945393 -0.21700814 0.016184455 -0.027909955
000070 eb c6 24 be 31 c9 3c 3e 21 0f e5 3d 9a ff 11 bf
       -0.16091506 0.18436123 0.11184526 -0.5703064

classifier.1.weight f4 [64, 32]
000000 f2 d4 4d be d4 73 a1 bd 26 28 9c bc e5 7e 04 3e
       -0.20100763 -0.078834206 -0.019062113 0.12939031
000010 57 df 26 be 10 4f c7 3d 40 88 c6 3d 2d d9 95 3d
       -0.16296135 0.09731877 0.096939564 0.073168136
000020 f9 57 c3 3d 7d 34 29 3e a8 ec 23 3d c6 0f 47 be
       0.09538264 0.16523929 0.040020615 -0.19439611
000030 34 70 12 3e f8 03 f0 bd 41 57 25 be 19 84 97 bd
       0.14300615 -0.11719507 -0.16146566 -0.073982425
000040 38 ad 23 3c 6a 38 00 3e 8f b1 d7 3d 4d 37 95 3d
       0.009990029 0.1252152 0.105319135 0.072859384
000050 0d c2 d9 bd 1d 66 af bc 9c 02 5a bd 82 ca e5 3c
       -0.106327154 -0.021410996 -0.053225145 0.028050665
000060 23 e2 13 be cb 1c 5c be 7b c6 ea 3d 91 af 04 bc
       -0.14441733 -0.21495359 0.114636384 -0.008098499
000070 eb 06 a8 3d 91 45 ee bd ad 96 04 be f0 e6 93 3d
       0.082044445 -0.116343625 -0.12948103 0.07221782
000080 6b bd 50 3e 32 4c 34 3d 99 df a8 3d ec 2f cd 3e
       0.20384757 0.044017978 0.08245773 0.40075624
000090 dd a3 73 bd 0e bf e3 bd a5 7b 5e be 56 57 e4 3c
       -0.059482444 -0.11120425 -0.21726854 0.027873676
0000a0 9b b9 be 3e d8 b3 78 3f 76 b3 f1 bd 2e 05 c3 3d
       0.3725098 0.9714942 -0.118018076 0.09522472
0000b0 b9 b9 63 3d 52 18 a5 3d 81 4a 2f 3d 40 f7 74 bd
       0.05559704 0.08061279 0.04279566 -0.05980611
0000c0 66 88 f1 3c 5c 71 25 be 2f 00 be 3d 0c 08 c7 3d
       0.029483985 -0.16156524 0.09277379 0.09718332
0000d0 51 54 8d bd 50 ea 1d be 3c 81 48 3e 46 00 85 3d
       -0.06900848 -0.15421414 0.19580549 0.06494193
0000e0 ab f1 52 be ff ac 7e bd df 88 98 be 7e 25 1a bd
       -0.20600002 -0.0621767 -0.29791924 -0.03763341
0000f0 2e 3c 34 bd 54 1c 99 3e 30 91 02 be f9 24 2e 3f
       -0.044002704 0.29904425 -0.12750697 0.68025166
000100 4a 13 6c bd c6 fe fe 3d 1e 73 af 3d 02 a5 07 be
       -0.057635583 0.12450938 0.08566879 -0.13246539
000110 81 0f d9 3d 5e ba 65 3e 9b ae 37 3e 25 10 b7 be
       0.1059866 0.22434375 0.179377 -0.35754505
000120 85 d7 2f be 59 9b 41 3e c1 01 f1 3d 38 f2 94 be
       -0.17172058 0.18906917 0.11767913 -0.29091048
000130 5b 44 34 3d 1b d9 85 bc 94 79 ae be 7f 2b 03 3b
       0.0440105 -0.016338876 -0.34077132 0.002001494
000140 a0 5e 5e be 3a 66 a8 be 9d 52 d2 bd 0f 41 89 bc
       -0.21715784 -0.32890493 -0.102696635 -0.016754655
000150 c9 5c bd 3e 2a 1b 93 be d3 a8 86 bd d7 03 87 be
       0.36984852 -0.28731662 -0.065751694 -0.26370117
000160 16 32 2e bc bf 02 8f 3d c3 ac 8d 3e e7 f0 80 3e
       -0.010632059 0.06982946 0.2767087 0.25183794
000170 9c 56 09 3c 09 8b 07 bd 1e 04 ad be ee 5e e6 be
       0.008382466 -0.03309158 -0.33792204 -0.449943
000180 a3 94 7e 3d 43 7c c6 3d bc a1 22 3e af ad 92 3e
       0.06215347 0.0969167 0.1588201 0.28648135
000190 90 af a2 bc be 2f 68 be 5d 87 6d bd 19 0b 76 3d
       -0.019859105 -0.22674462 -0.05799042 0.060069177
0001a0 fe 84 97 3e 27 bf 51 3f 11 f2 0e be d7 55 b3 bc
       0.29593652 0.819323 -0.13959529 -0.021891518
0001b0 9c 55 46 be ec eb 57 3e 0d c9 90 3e 70 ab b6 bd
       -0.19368595 0.21086091 0.2827839 -0.08919418
0001c0 b9 78 2e 3d 4e b0 4e be c2 ff 78 bb 22 d8 e4 3d
       0.0425956 -0.20184442 -0.003799424 0.111740366
0001d0 6c 13 85 be be e8 cc be e6 f7 14 be 33 2b ab be
       -0.2599138 -0.40021318 -0.14547691 -0.33431396
0001e0 8a 8a 76 3d 17 19 3b 3c 0e 20 db be 66 8f 62 be
       0.060190715 0.011419556 -0.42797893 -0.22125015
0001f0 3a be 70 bd 24 cc 4c 3e 87 b6 17 be b9 2d 6b 3f
       -0.058775164 0.19999748 -0.14815722 0.9186664
000200 16 ff aa bd c6 94 db bd c0 c7 20 3e 3b 0f b5 bc
       -0.08349435 -0.10721736 0.15701199 -0.022101989
000210 e8 eb b2 3d bd 9f 1d bd 8e 49 40 3e eb ea b8 be
       0.08736402 -0.038482416 0.18778059 -0.36116728
000220 a6 59 c3 bd 97 da 64 be 60 66 dc bd b4 16 7c bd
       -0.095385835 -0.2234901 -0.10761714 -0.06154509
000230 84 94 2d be cb 4f 9b 3e 85 a4 a6 be e0 7c 3c bd
       -0.16951185 0.30334315 -0.32547393 -0.046017528
000240 b0 e6 a2 be 6e a5 6f be 86 0c e3 3c 6d 01 26 bd
       -0.31816626 -0.2340295 0.027715933 -0.040528703
000250 33 38 24 3f e3 35 bc bd 68 98 8d be 2c 51 85 be
       0.64148253 -0.091899656 -0.2765534 -0.26038492
000260 4d 80 ca 3d b1 a6 12 3b 6b f1 92 3e 27 b6 99 3e
       0.09887753 0.0022377188 0.28699812 0.30021784
000270 6d 55 5f 3d 3a 12 db 3c 0e 86 4d be ae 1c 0a bf
       0.054524828 0.02674209 -0.20070669 -0.5395001
000280 e3 a5 f3 3d 1e 40 de 3d 7c 86 46 3e 62 d1 2a 3e
       0.11896875 0.10852073 0.19387239 0.16681436
000290 a7 98 96 bd bb 04 a7 be 7f 56 b5 be 28 ce 3c bd
       -0.07353335 -0.32620797 -0.35417554 -0.046095043
0002a0 20 c4 99 3e 1e 8a 1c 3f e8 a4 17 be ba 81 af 3c
       0.30032444 0.6114825 -0.14809 0.021424163
0002b0 0f 7b c8 bd 96 be 9d 3e c1 54 18 3e d8 40 90 be
       -0.097890966 0.30809468 0.14876081 -0.28174472
0002c0 e9 55 af 3d 64 69 d9 bd b0 f9 58 3e 3b f8 5f 3e
       0.08561308 -0.10615805 0.21188998 0.21872036
0002d0 66 15 d9 be 65 1c cb be 24 1e ab 3d 4d 87 a7 be
       -0.42399138 -0.396701 0.08355358 -0.32720414
0002e0 32 2a bb 3c 2c 2c d6 bb 36 ca 02 bf 75 42 c6 bd
       0.022847269 -0.0065360274 -0.510898 -0.096806444
0002f0 b0 63 54 bd f8 dc 89 3e b1 ae a7 be fa 0d 7e 3f
       -0.051852882 0.26926398 -0.32750466 0.99240077
000300 cc a6 c2 bd 0d bc a9 bd dd 83 41 3e e3 d7 ae bd
       -0.0950447 -0.08287821 0.18897958 -0.08537271
000310 6b f6 1b be 5c 39 b0 bc 04 f1 24 be 3d 8c 91 be
       -0.1523072 -0.021511726 -0.16107565 -0.28427306
000320 b7 1b ce bc 74 e7 87 3d 90 68 00 3d f2 3e 5d be
       -0.0251597 0.06635943 0.03134972 -0.21606043
000330 0d 6c cd be 5e 0b 09 3f 86 98 ee be 8f 17 aa be
       -0.401215 0.5353297 -0.4660074 -0.332211
000340 07 f8 f3 be 5d 87 01 bd 7d e6 76 be d9 b4 3b be
       -0.47650167 -0.031623233 -0.24111362 -0.18330707
000350 5a d5 9a 3e 02 e4 82 be 54 f7 ed be 75 25 2f be
       0.302409 -0.2556458 -0.4647776 -0.17104132
000360 e0 83 cd 3d 65 16 c0 bd 68 3e 5f b8 6f 27 84 3c
       0.10034919 -0.093792714 -5.3225463e-05 0.016132085
000370 6b 89 39 3e 6d e9 bd bd e2 97 a3 be dc 9c 7e 3e
       0.18118827 -0.09273038 -0.31951815 0.24864525
000380 1c d0 71 3e 9b 40 f8 3c e4 e2 d8 3b ff 92 8d 3e
       0.23614544 0.030304244 0.0066188443 0.27651212
000390 0f b4 ac bd dd be 38 be 28 a3 4d bd d1 bd d1 bd
       -0.08432781 -0.18041559 -0.050204426 -0.10241283
0003a0 be 27 44 3e e9 c9 82 3e 6e 38 9b 3d 5a ef ce bd
       0.19155785 0.2554467 0.075791225 -0.101042464
0003b0 8d a5 a8 bc b1 0b d9 3c 34 39 00 bc b0 23 b6 be
       -0.020586753 0.026494833 -0.007826138 -0.35574102
0003c0 91 49 81 bd 33 dd 67 be bb c4 18 3e 27 fe ee 3d
       -0.0631286 -0.22642975 0.14918797 0.116695695
0003d0 a3 b6 dc be db 04 c2 be 8e cf 9b bc fa 57 d9 be
       -0.4310809 -0.3789433 -0.019019868 -0.42449933
0003e0 3a b9 7e 3d 79 a7 49 3e 5e d4 e5 be d3 a7 2f be
       0.062188365 0.19692792 -0.44888586 -0.17153864
0003f0 35 b6 26 3e 90 8b 9e 3e 0a 93 c3 be ef 20 c2 3e
       0.16280444 0.30965853 -0.3819812 0.3791575

classifier.1.bias f4 [64]
000000 6e 56 2a be b0 c1 ab 3d 6f ac 05 bc af 23 20 3e
       -0.16634533 0.08386552 -0.008158787 0.15638612
000010 d9 97 5b 3e 99 86 a9 3d 55 bd 88 bd fe 19 0e 3e
       0.21444644 0.082776256 -0.06676737 0.13877103
000020 de c6 17 be cd cd e1 bc fb d9 5f 3d dd 87 c3 3d
       -0.14821956 -0.027563954 0.05465124 0.09547398
000030 df f0 2e 3e da 95 03 3c a3 bb c0 bd f5 85 02 be
       0.17084073 0.008031333 -0.09410789 -0.12746413
000040 33 0b 12 bd 87 ec bb bd 92 2b b6 bc fc 63 96 bc
       -0.03565521 -0.091759734 -0.022237573 -0.018358223
000050 51 f1 ec bc 7b 6c 02 be a2 c1 0f be 59 18 49 be
       -0.028923662 -0.12736695 -0.14038709 -0.19638194
000060 ef 59 27 be 2e c3 93 bd 98 89 86 3d 49 86 fc bd
       -0.163429 -0.07214962 0.06569213 -0.123303
000070 14 54 ea 3d bd b2 2c bd 1a b0 03 be 32 4b 06 be
       0.11441818 -0.042162646 -0.12860146 -0.13114622
000080 5c 36 3e bc ab ec 09 be 58 2e 04 be 69 56 35 be
       -0.01160964 -0.13469188 -0.12908304 -0.17708744
000090 6d e5 b1 3a e4 48 19 3e e3 9b e5 3d 30 8a 19 be
       0.0013572403 0.14969212 0.11211374 -0.1499412
0000a0 4c 53 64 3e 37 0d 9b 3d f2 24 32 bc 07 7b 0f be
       0.222974 0.0757088 -0.010873066 -0.14011775
0000b0 8c 63 b5 3c 98 8a a7 3c 0e b7 83 3e 1e 9b 19 3d
       0.022142194 0.020451829 0.25725597 0.037501447
0000c0 64 9c fd bd ea fe f8 3c b9 d7 c5 3d 6e 00 25 be
       -0.12383345 0.03039499 0.096602865 -0.16113445
0000d0 b5 5a a2 3e 33 52 97 3d 7f 83 d5 3d 4d 6e c3 bd
       0.3170983 0.07388725 0.104254715 -0.095425226
0000e0 d3 14 a6 3d 56 82 96 bd 3a 75 16 be f3 ba ca bc
       0.08109441 -0.07349078 -0.14693156 -0.024747347
0000f0 33 1f e7 bd 03 6a bd bc d8 5c 83 3d 3d 01 93 bd
       -0.11285248 -0.02312184 0.06414193 -0.071779706

classifier.4.weight f4 [3, 64]
000000 fb 08 26 bd 1e a9 f5 bb 15 93 b8 3d 2c f3 47 be
       -0.04053591 -0.007496967 0.09012429 -0.19526356
000010 9e 5a 46 3e f5 9c 60 bd 1c 71 c7 3d ab 39 86 be
       0.19370505 -0.054837186 0.09738371 -0.26215872
000020 c7 38 14 be 8e 87 4a 3b a2 6f 1d 3d 7a 8e f2 3e
       -0.14474784 0.003090355 0.03843654 0.47374326
000030 1d 8f d0 3e 57 cd 98 b9 e9 4f e8 3e 8b a8 07 3c
       0.40734187 -0.0002914469 0.45373467 0.00827993
000040 75 f8 fc 3d 30 6e c7 3c e2 1b 5e 3e 5b 09 06 be
       0.12352077 0.024344534 0.21690324 -0.13089506
000050 b1 6d 42 be 80 8a 95 bd 2c b9 53 bd 38 85 a8 bd
       -0.18987156 -0.073018074 -0.051690266 -0.082285345
000060 4d b6 7f 3c bb 9c 29 bf c3 4f e0 3d 6a b1 e9 bb
       0.015607429 -0.66254777 0.10952713 -0.007131745
000070 49 8c 02 3f af c9 e1 3e 29 81 85 bd 08 34 f6 3d
       0.5099531 0.44099185 -0.06518776 0.12021643
000080 20 e1 ef 3e 18 c7 2f bd 4d 57 93 ba 81 f7 9e bc
       0.46851444 -0.04291448 -0.0011241228 -0.019405128
000090 ce 79 49 3c a6 01 33 be 29 d9 df 3e 92 fe 6c 3b
       0.012297107 -0.17481098 0.43720368 0.0036162478
0000a0 2c fc 99 3d 0d d0 db 3e f6 f1 09 3d b7 d2 ab bc
       0.07518801 0.42932168 0.033678018 -0.0209745
0000b0 63 a2 08 3e 15 c5 8d bd 19 ac 80 be 3c 23 ff bd
       0.13343196 -0.06922356 -0.251313 -0.12457892
0000c0 1b 52 c8 bd fb 27 05 3f 37 4d 04 3f 90 6f e4 bc
       -0.097812854 0.5201413 0.5168032 -0.027885228
0000d0 e5 61 35 be 53 c7 88 be 18 6d 28 3e 2c 32 e4 bd
       -0.17713125 -0.26714572 0.16447866 -0.11142382
0000e0 0e ea 73 be f3 08 50 be a3 60 96 3d 56 d9 10 3e
       -0.23819754 -0.20315914 0.07342651 0.14145407
0000f0 30 c9 cf 3c 9e 52 8d 3d 08 a6 90 bb 00 b1 cc 3c
       0.025364488 0.069005236 -0.0044143237 0.024986744
000100 29 80 fc 3b a1 69 ec 3d e7 f1 45 be c6 57 35 3e
       0.0077057076 0.115435846 -0.1933056 0.17709264
000110 d1 a4 fa bd e3 f5 5d 3e 6d 29 52 be 59 91 80 3e
       -0.122384675 0.2167583 -0.20523615 0.2511089
000120 86 40 18 3e 77 17 49 be 9d 3f bf 3d 2d f4 86 be
       0.14868364 -0.19637857 0.09338305 -0.26358166
000130 23 0a a1 be 6d 07 0e 3d b9 c3 d4 be ef 77 ac bb
       -0.31453046 0.03467505 -0.41555575 -0.0052633206
000140 32 2a 77 bd aa 35 be 3d f5 7a 37 be 97 c9 29 3e
       -0.060342975 0.09287579 -0.17917998 0.16580807
000150 8d 83 15 3c b7 af dc bd 68 58 2f bd 92 84 e2 bd
       0.009125602 -0.107757024 -0.04280892 -0.11060442
000160 c9 75 88 bb ea e7 4f 3e 20 09 0f be c9 b5 10 3d
       -0.0041644317 0.20303312 -0.13968325 0.035329614
000170 0f 66 01 bf 13 20 e6 be de 0e 4f 3d 98 25 b3 bd
       -0.50546354 -0.44946346 0.050551288 -0.08747405
000180 7f bb a2 be e7 72 24 bd 90 42 a0 3d ee d7 6e bd
       -0.31783673 -0.040148642 0.07825196 -0.058311395
000190 9d 58 8a be 26 09 fa 3d 9e d0 3d be 9d f9 6b 3d
       -0.27020732 0.12208776 -0.18536612 0.057611097
0001a0 b0 e6 b2 3d 73 5b 53 be af 07 6c be c7 1f d8 bd
       0.087354064 -0.20640354 -0.23049806 -0.10552936
0001b0 1a b5 44 be 48 66 f4 bc b0 c6 da 3e 4d 95 3c 3e
       -0.1920971 -0.029833928 0.42729712 0.18416329
0001c0 1f 18 d6 bc 4f 9e 92 be 3a 92 c3 be 1a 3b ce bd
       -0.026134549 -0.28636405 -0.381975 -0.100698665
0001d0 31 e8 a9 3e db cc 0d 3e a4 fb 18 be 3a 62 d2 bd
       0.3318496 0.13847677 -0.14939743 -0.102726415
0001e0 f6 bd ed 3d 68 98 8d 3d 3e 98 9a 3c 39 1c c7 bd
       0.11608498 0.06913835 0.018871423 -0.0972218
0001f0 ac 1a 7c 3d f7 68 d6 3d 3b de 8c be b1 5f 46 bd
       0.061548874 0.10469239 -0.27513298 -0.048431102
000200 97 65 05 be 37 0e 2a 3e b5 ae 84 bd c8 f8 fd bd
       -0.13027035 0.16606985 -0.06478635 -0.12400967
000210 85 ad 40 bd 65 a5 e8 bd ae 37 3e 3c f5 4d a8 be
       -0.04704048 -0.113596715 0.011609955 -0.32871976
000220 6f 43 93 be 43 11 01 3e f2 c4 cb bd 93 ed 13 be
       -0.28762385 0.12604241 -0.09949674 -0.14446096
000230 28 14 a5 be 2a 94 e7 bd f5 30 c9 be 6e 00 25 bd
       -0.3224194 -0.11307557 -0.39295164 -0.040283613
000240 92 19 75 be 50 11 5c 3c c9 0d 35 3e 45 d2 1a 3e
       -0.23935536 0.013431862 0.1768104 0.15119274
000250 f5 fb ea 3c b0 b4 1f 3d 72 0d c9 3d 6f 71 52 3d
       0.028684596 0.038990676 0.098170176 0.05137771
000260 46 eb 82 3d 63 35 1f be a2 b0 a4 bc 59 88 8f bd
       0.06392531 -0.15547709 -0.020103756 -0.07008428
000270 5c 4f ae be 46 02 95 be 59 e3 92 3d a0 2e 42 bd
       -0.3404492 -0.29103297 0.071722694 -0.047407746
000280 02 a2 75 be 92 b0 94 3a 0a 80 e2 bc f4 46 b4 bd
       -0.23987582 0.0011344126 -0.027648944 -0.08802596
000290 24 39 0b 3e fe d3 f7 3d 64 f7 ff bd f7 71 6e 3b
       0.13596016 0.12100981 -0.12498358 0.0036383846
0002a0 44 38 27 be 04 c5 56 be 8c d2 ed 3d a5 a9 29 be
       -0.16330057 -0.20973593 0.11612424 -0.1656862
0002b0 3e 9a f1 3c 18 44 29 bd 8b ac af be ba 64 f6 bd
       0.029492494 -0.041324705 -0.34311327 -0.12030931
0002c0 c2 76 42 bd 2d 54 53 be 5e fd a6 be b0 6f 73 3d
       -0.047476538 -0.2063758 -0.3261518 0.059432685
0002d0 e6 a1 ca be 82 40 8f 3c 66 d2 40 3d ca 09 fc 3d
       -0.39576644 0.017486814 0.04707565 0.123065546
0002e0 f0 89 9b 3d 87 92 14 3d 80 5d 0a 3e 89 33 2e be
       0.07594669 0.036272552 0.1351223 -0.17011847
0002f0 6f 7e 85 3b 4c 74 04 bc 77 ab 2b 3e 80 b0 70 3c
       0.00407391 -0.008084368 0.16764627 0.014690518

classifier.4.bias f4 [3]
000000 a8 02 0f bf 79 a7 32 3e 6d d3 67 3e
       -0.5586343 0.17446698 0.22639246
