models/exo_cnn.pth (torch, 26501 bytes, 10 tensors)

conv1.0.weight f4 [8, 1, 9]
00000000: d6db 883c 6e8b d33e 302c 95bd cb5b 153e
00000010: 836d 1cbe 621f d8be 0e3a de3d 8762 e03e
00000020: 5f48 6bbe fd68 023b d9d8 b0be 48db d6be
00000030: 04ee 6e3a aea5 33be 9732 c1be 0b3f a2be
00000040: 206c abbe 3643 c1bd e8ae 1d3c 39e7 08be
00000050: 6b0d 32be 490f 823e aafd 5ebe 345b 9a3e
00000060: bd59 513e 93d5 d0bd 8d5a 72be ff85 6d3d
00000070: 9382 5bbe fc50 e8be c0ca dcbe d2cd 68be
00000080: d414 983c 783a b0be 43a8 8b3d d109 cebd
00000090: 9fc9 dfbd 5e22 1dbe a5a9 383e 73e5 c4be
000000a0: ded6 1f3e 5912 96be c361 b6bd e49e e6be
000000b0: ada5 d9be 9220 893e 7b3d 66bd c974 87bb
000000c0: bb83 463e aba7 783d afc8 14be 46c5 acbe
000000d0: 4e57 d0bd ff0b ba3e 6386 ae3e 7c91 a8be
000000e0: dde3 9b3e b631 86be e9a2 503d 59a0 2fbe
000000f0: 2d68 d03e c630 cc3e 8a9d 93be 720f 5bbb
00000100: a66c 4f3d d20d 283e 6d76 1abe 479e 7bbe
00000110: f99c 69bd 34b7 ffbc 8d42 f63d ddfa cb3d
0.016706388 0.41317314 -0.07283819 0.14585797 -0.1527615 -0.42211443 0.10850917 0.4382517
-0.22976826 0.0019899004 -0.34540442 -0.41964173 0.00091144466 -0.1754367 -0.3773391 -0.31688723
-0.3348093 -0.094366476 0.00962422 -0.13369454 -0.17387931 0.25402287 -0.21776453 0.30147707
0.20444389 -0.10196986 -0.23667355 0.057989117 -0.21436529 -0.45374286 -0.43123436 -0.22734764
0.01856462 -0.34419608 0.06819203 -0.10060466 -0.10927128 -0.15345141 0.18033464 -0.38456306
0.15609309 -0.29310873 -0.08905365 -0.450431 -0.42509213 0.26782662 -0.056210976 -0.004133795
0.19386189 0.060706776 -0.1452968 -0.33744258 -0.10172902 0.36337277 0.34086904 -0.32923496
0.30447283 -0.262098 0.050936613 -0.17151012 0.4070448 0.3988096 -0.2883113 -0.0033425954
0.050640725 0.16411522 -0.15084238 -0.24572097 -0.057034466 -0.031215288 0.12024412 0.09959958

conv1.0.bias f4 [8]
00000000: 7e82 04be 2590 f5be 3be3 163f 99cf 09bf
00000010: 79c5 9abe 1a56 83be b624 01be 321f 363f
-0.12940404 -0.47961536 0.58940476 -0.53832394 -0.30228785 -0.25651628 -0.1261166 0.7114135

conv2.0.weight f4 [16, 8, 5]
00000000: adb7 5b3d 7924 2ebd a2d0 0d3e b02a 50bd
00000010: 97fe f73d 7eb7 9dbd f86a 38be 9fd9 c03d
00000020: 1019 7abd ffa8 1fbd 7ec6 043e 82a7 34bd
00000030: 58a9 8a3e a3a2 613e 40e8 5c3e 2ca1 1fbe
00000040: 33a2 f7bd d6a6 b6bd f226 c9bc d8b4 9f3d
00000050: 13a9 a5bc b182 e73d 802b 993d 8339 eebd
00000060: dbf2 f63d 4185 083e d12e ffbd aa09 c83d
00000070: 0198 233e c937 333e dc12 63bd 7895 f73d
00000080: ea6e acbc 080e b43d b2ea 55bc 1cff 7b3d
00000090: b577 863e 1424 923e 5872 4e3e 0a7d e23d
000000a0: 9ae9 2a3e 8302 e23c 9259 133d f9df a4bd
000000b0: dbdf 033d 5dd9 a83e ac8f 6e3e abc2 a43e
000000c0: d123 a13d ad71 1e3e 953f 48be 913c 81be
000000d0: c891 38be 2faf 8ebe 9f75 81be ab19 923d
000000e0: 272d 853e 2902 993e 6286 993d 0f47 c53d
000000f0: 44b7 703d 2720 3c3e 76d5 653e 7621 343e
00000100: 2b58 39bd c14f e4bd e328 dbbc c948 85bd
00000110: a786 a0bc 01a8 a43d ef7f af3d 1d20 823d
00000120: 4711 a73b 33d3 39bd 0e5f cebd 34ea c5be
00000130: 65a0 29be c712 09be 6389 74be 12e8 5bbe
00000140: 7fe7 d0bd dbb3 39be 2ca2 d6bc 7996 193e
00000150: 0d3a 0e3e ad2e 4d3e c4bb 993d 4b90 48bd
00000160: 3475 32bd d7a9 9cbe 3afa 42be 0a53 44bd
00000170: b5f4 b03d 825e 9dbb bb50 c2bc ac2c 953e
00000180: e20c 933e 3672 7b3e e068 c23c 63fb 50be
00000190: 97eb 7b3e ac59 3dbd 0541 cabd 7e18 23be
000001a0: 62bf 99be ba0d b6bd 5d6e c3bc 7e92 3e3d
000001b0: 4fb4 033e f450 723e 8505 65be d410 38be
000001c0: 61ab 4cbe 87b8 95bd 16d3 29bd e28c 75bd
000001d0: 21ac 8bbd 3a17 26be 7d2a 8abe f7b1 05be
000001e0: 950c 633d d985 7ebd e944 933c f433 e6bd
000001f0: 257c e13d 67bc a5bd ed22 40bc 55be d9bc
00000200: 1796 9a3c 5f15 933d d293 c03d 5c70 1bbc
00000210: bc25 cc3d a810 203d f17e 6dbd 8b8e e83d
00000220: d465 29ba 61be 0d3e 0f53 fd3c d536 333e
00000230: 8912 e9bd d6c1 3fbe fbbb c43c f414 433d
00000240: d496 1c3c df25 8c3d 3674 6d3c 12dc 7abc
00000250: 0ba6 303d eacb 4b3d fa34 fdbd 9af3 ddbd
00000260: 9b00 953d 66fa 423d b19c 97bc 06d2 6ebe
00000270: 9756 fbbd 04c4 a1bd 9edc ffbd f010 613d
00000280: 442e 723e 9673 7c3e 4d6b 793e 014e d23d
00000290: 1635 853d 0d62 b93d 6817 b23e 378b cc3e
000002a0: c0d4 323e 6504 6d3e 93af 3c3b edd0 68bd
000002b0: 0ba0 d43c 9ac8 eb3c da36 48bc 472e d53e
000002c0: a2d1 a53e ab80 073e a7cb 043e a66a 3b3e
000002d0: 6fe6 343e c8ec 2b3e c222 df3d c152 1f3e
000002e0: 0d3d 2b3e d2ae a53d e5a8 ab3d 386a 823d
000002f0: 8ea5 003e 9b3e 2c3e 32bf 293e b690 39bd
00000300: c769 323e a2dc c33d 37b8 acbd 0018 a0bd
00000310: 8a53 90be 8430 5dbe 94b0 14be 30cc 60be
00000320: b32b 483e a034 f33d 495f 64bd 45ee fa3d
00000330: 064f 4d3b c8d6 e23d fcdc 5dbd 8f1c 09be
00000340: 194f da3d f0a1 6abe 0274 dd3d 4cf7 60bd
00000350: dad6 2c3e d07c c6bd e919 d5bc 8158 a4bd
00000360: 79ca edbd 40cc 24be aa0a 163e a714 2fbd
00000370: fdd0 103e c615 b7bd aa25 1f3e 65f8 153e
00000380: e2f5 02bc 0635 a0bd a617 f23b 8bd5 e83d
00000390: c037 8cbc 4ea8 55bd 9c62 683e 7cb3 cc3d
000003a0: 5ec6 0d3e 4043 173e 9d8e 07bd cd4b f93d
000003b0: 56eb bb3d c9dc e5bd dad6 a93d 2b75 303e
000003c0: 2bbd ba3d 1131 583e c0f4 513e 07dd ccbd
000003d0: 3407 463e 240b 22be e831 8e3d 8f19 b0bd
000003e0: 09f0 e7bd 9b89 d33d 1f1d 393e d28f 51bd
000003f0: 4401 85bd 796f 7f3c acd3 6cbd 63ef 113e
0.053641964 -0.04251525 0.13849118 -0.05082196 0.12109106 -0.07701014 -0.18009555 0.09416508
-0.061059058 -0.038979527 0.12966344 -0.04410506 0.27082324 0.22034697 0.21572971 -0.15588826
-0.12091484 -0.0891854 -0.024554703 0.07798165 -0.020222222 0.11304224 0.07479 -0.11632063
0.1205804 0.13332082 -0.124601014 0.09767468 0.15975954 0.17501749 -0.055437908 0.12089056
-0.021048982 0.08791739 -0.013056444 0.061522588 0.26263204 0.2854315 0.20160806 0.110590056
0.16690674 0.027589088 0.035974093 -0.08050532 0.032195907 0.32978335 0.23296994 0.3217977
0.078681596 0.15473051 -0.19555505 -0.2524152 -0.18024361 -0.2786803 -0.2528505 0.07133802
0.2601101 0.2988446 0.074963346 0.09632694 0.058768526 0.1837164 0.2244471 0.1759089
-0.0452501 -0.11148024 -0.026752895 -0.06508023 -0.019595457 0.08039857 0.08569323 0.06353781
0.005098495 -0.04536743 -0.10076724 -0.38655245 -0.16565092 -0.13386069 -0.23880534 -0.21475247
-0.102004044 -0.18135016 -0.026200376 0.14998807 0.13889332 0.20037337 0.075065166 -0.048965733
-0.043568805 -0.30598328 -0.19040766 -0.047930755 0.08640424 -0.004802526 -0.023720136 0.29135644
0.28720766 0.24555287 0.023731649 -0.20408396 0.24601589 -0.046228096 -0.09875683 -0.15927312
-0.30028826 -0.08889337 -0.023856336 0.046526425 0.12861751 0.23663694 -0.22365387 -0.1797517
-0.19987251 -0.073105864 -0.041461073 -0.05994881 -0.0681994 -0.16219798 -0.2698554 -0.1305617
0.05543192 -0.062139366 0.017977195 -0.11240378 0.11010007 -0.080925755 -0.011727077 -0.026580015
0.018870397 0.071818106 0.094031945 -0.009487238 0.09968135 0.039078385 -0.05798239 0.11355313
-0.0006462012 0.13842155 0.030923394 0.17501386 -0.113804884 -0.18726286 0.024015417 0.047627404
0.009557445 0.06843161 0.014493039 -0.015311258 0.0431271 0.049755014 -0.1236362 -0.10837479
0.07275506 0.04760208 -0.018507333 -0.23322305 -0.12272375 -0.07898715 -0.12493251 0.054947793
0.23650461 0.24653468 0.24357338 0.10268784 0.06504266 0.09051905 0.34783483 0.39949962
0.1746397 0.23146208 0.0028791174 -0.056839872 0.02595522 0.028782178 -0.012220109 0.4163687
0.323865 0.13232677 0.12968312 0.18302402 0.17666028 0.16789544 0.108953014 0.15558912
0.16722508 0.08089985 0.083818235 0.06367916 0.12563154 0.16820757 0.16576841 -0.045304023
0.17423163 0.09563567 -0.08433574 -0.07817078 -0.28188735 -0.21600538 -0.14520484 -0.21952891
0.1954792 0.11875272 -0.055754934 0.122524776 0.003132762 0.110761225 -0.054165825 -0.133898
0.10659618 -0.22913337 0.10813142 -0.05492334 0.16878834 -0.09691775 -0.026013331 -0.08024693
-0.11610884 -0.1609354 0.14652506 -0.042744305 0.14142223 -0.089397 0.15541711 0.14645536
-0.007993193 -0.078226134 0.007388073 0.11368855 -0.017116427 -0.05216246 0.22693866 0.099951714
0.13845202 0.14771748 -0.03309499 0.12172661 0.09175746 -0.11223752 0.08292933 0.17232196
0.09118112 0.21112467 0.20503521 -0.10003095 0.19338685 -0.15824562 0.069431126 -0.08598625
-0.1132508 0.103289805 0.18077515 -0.05116255 -0.06494382 0.015590542 -0.057819054 0.14251475

conv2.0.bias f4 [16]
00000000: aa0e f83d e854 f5be 067a bfbe 5a9e babd
00000010: 8bf7 a7be 2a86 07be da03 da3d 19e0 173f
00000020: 2480 51bd 8f13 d4bd 726b 88bd 6aee 89be
00000030: 30a6 98be f6f4 96be 13e3 ea3e 510c 4a3e
0.12112172 -0.4791634 -0.37397784 -0.091122344 -0.32806048 -0.13234773 0.10645266 0.5932632
-0.051147595 -0.10355293 -0.066611186 -0.26939708 -0.2981429 -0.29483765 0.4587637 0.19731261

conv3.0.weight f4 [32, 16, 5]
00000000: 7b6a f5be 42b2 1bbf 35d5 08bf af06 f6be
00000010: 364f f5be ebd3 cf3e 8849 603e 01d7 853e
00000020: 810b 12be 0b90 1abe c094 183f f549 f83e
00000030: 7a27 153f 8578 1c3f c789 2d3f 4c49 cabc
00000040: 485f 843d 0173 00be 1ff9 8fbe 787d 4ebe
00000050: 6bac d73e ac54 3e3e 80d2 333d 75e0 43be
00000060: 52b9 e0be e177 bebc 9a9e 8dbe e158 86be
00000070: 70cd 26be 2b5e b1be 7995 03be 47d8 22be
00000080: b4d8 a8bd a482 1fbe 8021 81be a908 1cbf
00000090: 8e1f 18bf 5e80 19bf e53a 49bf 1403 48bf
000000a0: bd50 ad3e 1efc 0a3e 018b febd 67eb b6be
000000b0: c6da e7be 8592 ad3d 568b f83e 1b65 2a3f
000000c0: a6ce 803e 686c 70bc 3859 903e 2255 4f3d
000000d0: e0b4 23be ce29 69be 36bc a8be cee0 fa3e
000000e0: ef6b 7a3e 7ca0 e93d 623a 73bd 9f1d 3dbe
000000f0: 4401 dd3e 358c ad3e 0cb1 f13d 4ab7 d7bd
00000100: c4d1 33be 3d34 9f3e cbae c13e 30a0 163e
00000110: a71b 25be 5445 8abe bc62 eabe 19cb 01bf
00000120: 61da dbbe 99b3 f0be 55b5 d2be efe2 5e3e
00000130: 7644 063e c700 fd3d 543d 90bd 0589 07be
00000140: 2eaf 19be 9141 cdbd e3eb d4bd 413f 04be
00000150: 0586 ccbd 1e6b 873e a9f7 693e 72c4 a03d
00000160: 8089 c13d e56f 813e bc4c 2f3e a5de 3c3e
00000170: bc26 f93c 54ed d23b 0346 0d3e 1f66 0a3d
00000180: 3862 b73d 9841 12bd 5493 ec3d f7fb 07bb
00000190: c5a7 783e b720 a73d 331d 4a3e 69d0 443e
000001a0: 588a 663e fd67 5bbc bcb6 3abd f960 f9bc
000001b0: 1a1f ab3d 6772 e93d e706 4bbd 2fa5 0abc
000001c0: 02ab 243d 652f ebbb 9174 d7bd 44ff 74be
000001d0: 6736 37be dac8 a1be f558 91be eff0 8bbe
000001e0: 0272 683d f76e 3d3d d9f3 9e3d 21ca fa3c
000001f0: f717 613d a582 ebbd 3dfa 9dbd c7d0 073e
00000200: b45a da3d 873e 5bbd cf1e 3b3e cb62 033d
00000210: e209 913d 55f0 b53d b163 343e f859 283e
00000220: 3ef0 243e ad75 d63d 3151 253e af7f fc3d
00000230: 21a9 813e e7de 853e 963f 3b3e 7dfd 853e
00000240: c3e6 883e 1ae4 293e 035d 313e e443 153e
00000250: 61c8 4a3e 02e8 053e 5711 4fbe 32e7 dabd
00000260: 7f97 02be a77d 0dbe 562f 6dbe 4c8e 74be
00000270: 472c fcbd 53f2 3ebe 62bf e1bd 51e9 8cbe
00000280: 78f7 1cb4 2486 f9b3 58d0 ecb3 d3a6 b7b3
00000290: 55bc bbb3 5ce4 09b7 9701 9fb6 6ccf bbb8
000002a0: e74c dbb8 7e56 a5b8 bde6 0900 ad7f ef80
000002b0: 7848 1981 5591 4b80 2c3a 7780 56ae 82b0
000002c0: 889b d3b0 9d4b dfb1 1d00 7cb1 a04a 2fb1
000002d0: 3aef 09b7 23a4 c0b6 d7d6 c8b7 f3ce e8b7
000002e0: f58d acb7 1f40 18b3 c7e3 f9b2 505e ecb2
000002f0: fa4e 9fb2 8b5e dab2 a1b9 51b1 981a 9ab1
00000300: bfc8 8130 8a87 4aae 431d 41b1 6ac0 f62f
00000310: 3e37 b02f 5a21 bf2f e837 ca2f 50b0 ad8a
00000320: af75 d3b8 f916 c2b8 95d4 31b9 f5ab 51b9
00000330: 922b 26b9 9770 e5af 7861 372f 468f 6f2f
00000340: 15a2 a3af 11e9 12b0 66b8 0db7 d59f 75b7
00000350: a7ac b9b7 9417 beb7 a41d 93b7 6559 a1b7
00000360: df80 05b8 6b9e 03b8 16ea 16b8 6b7f eab7
00000370: 1c60 00b9 3fbf 41b9 8920 1ab9 6363 27b9
00000380: ae95 f5b8 8911 04b7 7511 efb6 4157 5eb7
00000390: e83d 72b7 53b2 31b7 9f1c 0eb3 2fcf 85b2
000003a0: 08b8 4cb2 c1f9 86b2 0eca 90b2 aedf ad30
000003b0: 3d8a 802e 4ec7 1fb0 4d79 8bb0 be73 55ae
000003c0: d1f6 ea3d a5c6 903d fdd8 4b3c 8c85 983d
000003d0: 7b2c cf3d 18d8 6abe 9cbd 71bc 4ad6 46bd
000003e0: 495f f6bd d248 3dbe fdb4 253d c272 c9bc
000003f0: 9d6b c2bb ab52 69bb e1dd f33a 4730 c63c
-0.479328 -0.60818875 -0.5345033 -0.48051974 -0.47911996 0.40591368 0.2190305 0.26140597
-0.14262201 -0.1509401 0.59601974 0.48493925 0.5826336 0.611214 0.67788357 -0.024693154
0.06463486 -0.1254387 -0.28119752 -0.2016505 0.42123732 0.18586987 0.04390192 -0.19128592
-0.43891388 -0.023250522 -0.27660066 -0.26239684 -0.16289306 -0.34642157 -0.12849988 -0.15902816
-0.08244458 -0.15577179 -0.2522087 -0.60950714 -0.5942315 -0.599615 -0.7860549 -0.78129697
0.3385066 0.13572738 -0.12428857 -0.35726473 -0.45284098 0.08475212 0.48543805 0.66560525
0.2515766 -0.014674284 0.28193069 0.0506183 -0.15986967 -0.22769853 -0.32956094 0.48999637
0.24455236 0.11407563 -0.05938185 -0.18468331 0.43165028 0.33896032 0.11801347 -0.105330065
-0.17560488 0.31094542 0.3782867 0.14709544 -0.1612383 -0.27006018 -0.45778453 -0.5070053
-0.42940047 -0.47012022 -0.4115397 0.21766256 0.13112053 0.12353664 -0.070429474 -0.13235863
-0.15008232 -0.100222714 -0.10396554 -0.12914754 -0.099865 0.2644891 0.22848381 0.07849969
0.09450054 0.2528068 0.17119116 0.18444307 0.030413978 0.006436983 0.13796239 0.033788797
0.089542806 -0.035707086 0.11551538 -0.0020749548 0.24282749 0.08160537 0.19737701 0.19220127
0.22513711 -0.013391492 -0.045584425 -0.030441748 0.083555415 0.11398774 -0.04956713 -0.008462234
0.04020215 -0.0071772807 -0.1052028 -0.23925501 -0.17891847 -0.3159855 -0.2838818 -0.27332255
0.05674935 0.046248402 0.07761354 0.03061396 0.054954495 -0.11499528 -0.07713745 0.13263236
0.106618315 -0.053526428 0.18273471 0.03207664 0.07081963 0.0888373 0.17616154 0.1644057
0.1610727 0.104716636 0.16144253 0.12329041 0.25324348 0.26146623 0.18285975 0.2616996
0.26738557 0.1659092 0.17320637 0.1457668 0.19803001 0.13076785 -0.20221458 -0.10688628
-0.12753104 -0.13817464 -0.23162588 -0.23882407 -0.12313133 -0.18647127 -0.110228315 -0.27521756
-1.4618661e-07 -1.1619366e-07 -1.1027504e-07 -8.551947e-08 -8.7421235e-08 -8.219005e-06 -4.7387543e-06 -8.95549e-05
-0.00010457058 -7.8839235e-05 9.09293e-40 -2.1994485e-38 -2.8153656e-38 -6.939798e-39 -1.0949292e-38 -9.508294e-10
-1.5396475e-09 -6.4987504e-09 -3.667089e-09 -2.550827e-09 -8.221536e-06 -5.741154e-06 -2.39419e-05 -2.7752923e-05
-2.0570102e-05 -3.5448576e-08 -2.9090996e-08 -2.7516904e-08 -1.854595e-08 -2.5421533e-08 -3.051902e-09 -4.4850132e-09
9.443041e-10 -4.6049865e-11 -2.810183e-09 4.4883858e-10 3.2053465e-10 3.4766395e-10 3.678331e-10 -1.6725615e-32
-0.00010083184 -9.25492e-05 -0.00016959228 -0.00019995852 -0.00015847225 -4.1734857e-10 1.6678381e-10 2.1787824e-10
-2.9764693e-10 -5.34457e-10 -8.4471885e-06 -1.4640352e-05 -2.2134116e-05 -2.2660744e-05 -1.7537568e-05 -1.9234323e-05
-3.182969e-05 -3.1380372e-05 -3.5980796e-05 -2.7954307e-05 -0.00012242835 -0.00018477159 -0.00014698705 -0.00015963386
-0.000117103904 -7.871896e-06 -7.1247873e-06 -1.32525465e-05 -1.4438738e-05 -1.05915415e-05 -3.3087982e-08 -1.5577454e-08
-1.1916207e-08 -1.5713228e-08 -1.685569e-08 1.265098e-09 5.845322e-11 -5.812709e-10 -1.0148057e-09 -4.8533393e-11
0.11472858 0.070691384 0.012441871 0.07447347 0.10115906 -0.22933996 -0.014754679 -0.048544206
-0.12029893 -0.1848481 0.040455807 -0.024590854 -0.0059332387 -0.0035602252 0.0018605554 0.024192942

conv3.0.bias f4 [32]
00000000: d42b 04bf 4200 94be 43c0 9cb3 8738 2a3d
00000010: abd5 babe 10bc babe df94 ad3b 39a9 a33b
00000020: f464 1cbb 4bde d23c 5c30 67bd 066d 99bc
00000030: 5ce4 af3d 8bee 85be ed9a d1bd bdcc debc
00000040: bac3 743d 3f85 65be dd31 2dbe 82e5 24bf
00000050: cb85 6abe a14e dd3d 7f8b 423c c878 afbd
00000060: 53e8 19bf a1d8 b3be 1b88 83be 66e6 f63c
00000070: dd0f 13bb f590 d2bb 70a9 49be d663 9cbe
-0.51629376 -0.28906447 -7.299288e-08 0.041557815 -0.3649114 -0.36471605 0.005297288 0.004994538
-0.0023863884 0.025740763 -0.056442603 -0.018728744 0.08588478 -0.26158556 -0.10234628 -0.027197236
0.059756972 -0.2241411 -0.16913553 -0.644127 -0.229026 0.10806013 0.011874079 -0.08567959
-0.60120124 -0.35126212 -0.25689778 0.03013916 -0.0022439875 -0.0064259716 -0.19693542 -0.3054492

classifier.1.weight f4 [64, 32]
00000000: ade0 3dbf 8ef6 78bf 107f 8601 2117 a43d
00000010: ac53 7cbf 02cf 82bf 1ad0 f6ba 026c 5c3d
00000020: 3444 7e3d db0d 92ba ba72 a13d a1b0 a13d
00000030: 8e1c c83d a389 2fbf 80d7 993d 7203 3cbf
00000040: 0764 a23d 4c85 f4bd 5119 3bbf 3380 31bf
00000050: cf6c 25bf cf41 883d 3161 8381 170c 923d
00000060: f1b0 17bf 3dea 86bf 528d 1ebf 7d8a 993d
00000070: 4c7f 903d ac4d 25bf abd7 42bf 7bf2 7abf
00000080: 24b7 3ba1 8536 7fb5 2e04 1101 cc84 2e99
00000090: dd24 e1b2 e4e5 efb5 ee87 6781 d835 709a
000000a0: d2c0 058a 5489 ab00 699c 33ac f2f1 9397
000000b0: 473c b900 c266 1fb7 303f 0899 d1b5 aeb3
000000c0: 7f83 9ca1 6fed 0c80 cda7 1cb4 bdc8 cea1
000000d0: f1e6 c9b6 af6d b0b5 8a84 0480 0b67 d6b1
000000e0: 1754 bda2 2662 a4b5 0dc5 258b d4e8 5f00
000000f0: a6e5 9f80 e3be 0bb3 ad9d 60b5 6891 cbb4
00000100: 9798 193f 9c7b 19bc bc90 8333 d527 0d3e
00000110: 4328 23bd 7103 b83d 8d37 7a3c 6f62 8fbd
00000120: 06e3 e73d 85cb 093d a4e1 063e a94f d33d
00000130: 9701 e43d 533f 75bd 060c 4c3d 3bd9 a9bc
00000140: f10a 1bbd af4f 043e 74ab 433d d14d 193f
00000150: 1fb2 3abd 79f1 66be 1b58 f336 52d3 07be
00000160: 4b89 1b3f 45e7 8d3d 9402 523e 1122 b73d
00000170: 5ba5 193e 6e1a 24bd f403 67bd f16c b4bb
00000180: f7bd f03d e662 583e 4399 9fbb df1f 653d
00000190: 8a9e 413e ab6f 693d a202 033c fc2d 74bc
000001a0: 0ab3 473e baf2 823c 464d 1e3e 0724 f43d
000001b0: 7174 2f3e f500 2fbd bf3f 9a3d e22d bcbc
000001c0: 2b6d 7fbd 5f1e eaba d1fc 9e3d 8611 793e
000001d0: 126f 4dbd 19bd 6ebe ab38 2e3b 6ef7 22bd
000001e0: 93aa 163e e260 2c3e 24f0 0ebc 8746 c43d
000001f0: 5ea0 3f3e 7a82 52bd 9baf e53d 9981 463c
00000200: 5898 aa3e 5879 013e 76ce 7906 3771 e6be
00000210: ecbf 443e 1441 fa3d 98dc 863b 5325 4ebe
00000220: e5c5 dbbe 0c9e 333d 62dd b3be 23c5 8fbe
00000230: 6852 03bf a287 633d 827f dcbe 0730 1b3e
00000240: a960 b5be 1588 e83e 9ef0 a13d 3a0d 8a3c
00000250: d4f9 8f3d 1497 d13c 98cb 973d 55fe bbbe
00000260: 8150 8f3e 8e55 f8bd a835 963e 664f 09bf
00000270: 05d2 cfbe e2d0 f23d 0168 613e 2a25 f63d
00000280: 103d 5fbc cdcb a9b2 ff1b 0d81 aaf3 763d
00000290: 143f 61bc d087 93ba 754a 9a33 3b2c 4f3d
000002a0: adfa 1fbd 8795 a2bd 3249 3fbe 6f27 d0bd
000002b0: 53ba ca3c 2028 8bba d69d febd a377 babd
000002c0: 1af0 2f3b be35 543d 88a0 623c 6ac9 013c
000002d0: 4bc2 b8ba 7d41 75bc 2911 08bc a223 10be
000002e0: b933 0a3c 5d76 95bc e7c9 42bc 4a9b a8bd
000002f0: 5e04 c2bd 5738 61bd 57db f43b f1df 47b3
00000300: c242 12bf e6eb 42bf af77 b031 ab57 5c3d
00000310: b2ac 3ebf 4ee0 66bf 844f 95bc 2438 a33d
00000320: e2ab de3d 0776 21bc 843a 0f3e be2a 503e
00000330: cb6c fd3c f2a8 1cbf 48c0 4dbd 0fbc 18bf
00000340: c352 a93d ae86 84bd d892 23bf d746 33bf
00000350: 4558 18bf 933f 9f3c f6ca 0d3c 983a b23d
00000360: 1585 bbbe e127 4fbf 561a 05bf 739e 5b3d
00000370: e424 b8bb c7e3 4abe 83c0 43bf 96cf 3abf
00000380: 8985 113e 9215 073e 2acb d626 f982 4e3e
00000390: 6a21 6f3d 14ed 653e 492b 2e3c e33b 10bc
000003a0: fa6a 1f3e 737a 113c a481 62bc 3180 5c3e
000003b0: 935f bf3d e21f a53c 0dd3 3e3e a611 36bd
000003c0: 8af7 6c3d 9745 1f3b b583 f63d 1f8f 893e
000003d0: c1f7 543d 7db9 93be 494a 873b 30fb 9dbd
000003e0: 033a e23e bdfb 363e ea47 8b3d aac4 4e3e
000003f0: 973e 823e a2a3 cebd 94d0 83bd 7739 273e
-0.74170953 -0.9725121 4.940615e-38 0.08012224 -0.98565173 -1.0219424 -0.001883033 0.05381394
0.062076762 -0.0011143045 0.078832105 0.078950174 0.097710714 -0.6856939 0.075118065 -0.7344276
0.07929235 -0.11939487 -0.73085505 -0.6933624 -0.64619154 0.06653177 -4.8261263e-38 0.07131212
-0.59254366 -1.0540234 -0.6193439 0.07497118 0.0705553 -0.6457164 -0.76110333 -0.98026246
-6.360045e-19 -9.507424e-07 2.6635293e-38 -9.022407e-24 -2.6210211e-08 -1.7873795e-06 -4.2525524e-38 -4.967433e-23
-6.4399825e-33 1.5753134e-38 -2.5524255e-12 -9.560728e-25 1.701119e-38 -9.501064e-06 -7.043796e-24 -8.1355786e-08
-1.0605778e-18 -1.187201e-39 -1.4589678e-07 -1.4012238e-18 -6.017152e-06 -1.3144944e-06 -4.14888e-40 -6.2399343e-09
-5.1317586e-18 -1.2247517e-06 -3.192609e-32 8.807895e-39 -1.4684226e-38 -3.253707e-08 -8.367595e-07 -3.7917494e-07
0.5999846 -0.00936785 6.12649e-08 0.13784726 -0.03983332 0.089850314 0.015272033 -0.070011966
0.11322598 0.033641357 0.13172013 0.10317928 0.11133116 -0.059874844 0.049816154 -0.020733466
-0.03785223 0.12921022 0.047770932 0.59884363 -0.045580026 -0.22553052 7.252221e-06 -0.13264206
0.6075637 0.06928877 0.20508796 0.089420445 0.15004484 -0.040064268 -0.056400254 -0.005506151
0.11754983 0.21131477 -0.004870565 0.055938598 0.18908134 0.05699126 0.007996233 -0.014903542
0.19501892 0.015984882 0.15459165 0.11920934 0.17134263 -0.042725522 0.0753169 -0.022971097
-0.06235997 -0.0017861834 0.07763065 0.24323091 -0.050154753 -0.23314323 0.002658407 -0.03978675
0.14713506 0.16833833 -0.008724246 0.095837645 0.18713519 -0.051393963 0.11215135 0.012115859
0.33319354 0.12643945 4.6983378e-35 -0.4500825 0.19213837 0.12219444 0.0041156523 -0.20131426
-0.4292442 0.043851897 -0.3512984 -0.2808009 -0.51297617 0.05554927 -0.4306603 0.1515504
-0.35425308 0.45416322 0.07907222 0.01685201 0.07030073 0.025584735 0.07411879 -0.36717477
0.27991107 -0.12125693 0.2933781 -0.5363678 -0.4058992 0.118562475 0.2201233 0.12018807
-0.013625398 -1.9766867e-08 -2.5917696e-38 0.06029097 -0.013747949 -0.0011255685 7.1847275e-08 0.05057929
-0.039057422 -0.07938676 -0.18680266 -0.10163771 0.02474705 -0.0010616817 -0.124324486 -0.0910485
0.0026845993 0.051809065 0.013832219 0.007921556 -0.001409599 -0.014969227 -0.008304873 -0.14076093
0.008435183 -0.018244917 -0.011888958 -0.08232744 -0.09473489 -0.05498537 0.0074724364 -4.653697e-08
-0.57133114 -0.761412 5.1358806e-09 0.053794544 -0.7448226 -0.9018601 -0.018226393 0.07969692
0.10872628 -0.0098548 0.13987166 0.20328805 0.030935666 -0.6119529 -0.0502322 -0.59661955
0.08267739 -0.064710006 -0.6389594 -0.7002997 -0.5950969 0.019439494 0.008654347 0.08702582
-0.3662497 -0.80920225 -0.5199331 0.053617906 -0.005619632 -0.19813453 -0.76465625 -0.72973
0.14211096 0.13191822 1.4904301e-15 0.2016715 0.058381476 0.2245372 0.010630437 -0.008803341
0.15568152 0.008879292 -0.013824854 0.21533276 0.09344401 0.020156804 0.18635197 -0.044450425
0.05785326 0.0024302953 0.1203684 0.26867005 0.05199409 -0.28852454 0.0041287285 -0.07713926
0.44184884 0.17869468 0.06800826 0.20192209 0.25438377 -0.10089804 -0.064362675 0.16330515

classifier.1.bias f4 [64]
00000000: 05e6 773d 9101 fda0 7675 8bbd fa43 48bd
00000010: b275 0b3e 22f1 203d efa3 503d a286 973d
00000020: 4549 36bd 90f9 aa3d 7f78 a5ae d2e5 4dbd
00000030: 8950 613d 52a5 a8bc 0e25 08bc e8c1 b53a
00000040: 8799 093d 71ca 19bd 829b 95bb 08b9 afba
00000050: c123 91bd defc cab9 3d05 41a1 0cf3 68bb
00000060: 4cc0 0eba d41b bc3c 95fb 04be fa18 3abe
00000070: 30fe 0bbd f878 593d 97af 2db7 3bf1 dbbc
00000080: fb77 bc3d 55d7 ffb0 0f33 46b3 b39f 8d3d
00000090: 77d7 a0bd 83a4 863d cf8b ebbd 59d3 203d
000000a0: 4f32 c43d f6e2 f8bd d284 33bd 9377 153d
000000b0: 6635 243d aac9 1fbe fb24 4a3d 0564 eabc
000000c0: 410b 31be 5486 133e 1e7a 02bc fa15 663c
000000d0: 6141 43bd 738c 9cbd f811 eb3d fd44 963b
000000e0: 6466 2bbd 0022 813d d73b dcba 1496 a53b
000000f0: 2787 f6b0 842c 31be 6c50 5f3e 4564 eab1
0.060522098 -4.2860904e-19 -0.06809513 -0.048892953 0.13619116 0.039292462 0.05093759 0.07398726
-0.04450347 0.083483815 -7.524736e-11 -0.050268 0.055008445 -0.020586643 -0.008309616 0.0013866993
0.03359368 -0.03754658 -0.004565657 -0.0013406584 -0.07086898 -0.00038716843 -6.5397876e-19 -0.0035545258
-0.00054455246 0.022962488 -0.12986596 -0.1817359 -0.03417796 0.05309388 -1.0352486e-05 -0.026848426
0.09202572 -1.8614893e-09 -4.6146905e-08 0.06915226 -0.07853597 0.06574347 -0.11501276 0.039264057
0.09579908 -0.12152664 -0.04382784 0.036490988 0.040089987 -0.15604272 0.049351674 -0.028612146
-0.1728945 0.14406711 -0.007963685 0.014043326 -0.047669772 -0.07643976 0.11478037 0.0045858608
-0.041845694 0.06305313 -0.0016802502 0.005053291 -1.7937268e-09 -0.17302138 0.21808022 -6.8216957e-09

classifier.4.weight f4 [3, 64]
00000000: ede6 e13e 4a73 0b81 0903 24be f9d3 32be
00000010: f285 563e a543 1f3c a476 0a3f 4bae f1bd
00000020: b8d4 523d f4f5 083e d9aa b4b1 42bb bd3d
00000030: e95f ef3e d8ac 8e38 f0f4 433e 2a84 01be
00000040: 8940 0a3f 9db5 613b 83a8 b481 2dbb bab1
00000050: a053 e33d 7de1 0bba 5400 9301 7cc2 253e
00000060: 55ab a73a d3f6 d9bd e190 40be b022 26be
00000070: 73a5 dbb9 7e3d 1fbe 7981 ad80 b42b 47be
00000080: bf03 703e 23c1 c29d 8e01 ca3b 5d57 34be
00000090: 625f 4fbe 999f dc3e caf8 43be 83e6 04be
000000a0: 8e82 d03e 281f 5d3d e4d4 07be 97c4 15be
000000b0: f096 39be a66c 25be dbbd f43e 8214 ad3c
000000c0: 4b8a 1bbe 12b8 543e 1b49 b3bc 2850 0c3f
000000d0: 9745 5cbe 19f7 3f3e 692b 493e 8e7d 8bbc
000000e0: b404 e73d 0308 343e a6dc 09b9 e5c6 c33d
000000f0: 7cca 9436 5697 1dbe 62bc 5b3e bc59 5ebb
00000100: 08f8 f6be 7f3c 3980 5bf7 373e e24c c23d
00000110: 46e8 b9be 6cb7 a7bd 9db5 f6be af5c ef3d
00000120: 5a4e 83be 006f bfbc 76db feba 3443 a9be
00000130: dff5 e1be c4e4 723c 3723 8bbd 276c a1bb
00000140: 2ea4 c3be 3690 063d ccfe 8f00 3e8b 78b7
00000150: f797 abbe 156d d2b6 0643 34aa 633c 8ebd
00000160: 0a9c 3d3b dcd1 35bd a2a4 b03d 94a5 ac3d
00000170: 8dfb 8eb4 ac05 e43d efad 0281 5e85 153e
00000180: 17c4 63bd f6be a400 dace debb ea40 bf3d
00000190: c0a6 e73d fc2d e6be b333 863d 8498 f33d
000001a0: 551e a9bd 9885 c3be e6ac fb3d 8081 013e
000001b0: 4a7a ac3d 03bf b93d 26fe e0be 2511 52bc
000001c0: fc78 703d 2ae7 383d 0375 65bc 5cb6 03bf
000001d0: 6757 b23d e89f 4ebb 37f4 3ebc 2556 833e
000001e0: 7eda 9cbe 8ddb 91bd 8ebd 42ba 846c a2be
000001f0: 222e d9bb 6e07 bf3d 2db1 58be 323b ed3b
00000200: 341e a4be 3c38 9200 b192 e6bd fdc5 183d
00000210: ec82 1c3e 7530 553d d0e4 c7be d6af d83d
00000220: 3992 083e d3e9 4abe a283 253b 3d51 d23d
00000230: 9972 b6be 1a51 123b 9a2b eabd 6744 1cbc
00000240: a3b4 e0be f59b 3d3d 0d18 0601 0963 c0b4
00000250: c5aa fb3d 612a c439 7399 7e2c d6ef 12be
00000260: ce42 d1ba 6087 aa3d d6d9 6c3c 0364 253d
00000270: 4e18 a1bb f748 9f3d 9c50 8e01 c96d 813b
00000280: 9643 18be 1d4a 5201 ae83 1c3b 64bb 903c
00000290: 8543 ba3d 3733 bbbe 08e8 d43c 9bcc 8b3b
000002a0: 7c53 63be c97f f93d 99d9 8b3d 81cc 54bd
000002b0: b0a1 063d 8e98 963c 6176 abbe 13c3 9bbb
000002c0: b214 123d f93f 09be 5b70 dc3b 8879 dbbe
000002d0: d92e 7d3d c108 34be ce6d 39be 0047 5abd
000002e0: 81de 223e d3c6 c4bd 3305 19b9 639d db3d
000002f0: fc98 d53b fd29 183d 0090 2fbd 1eb2 eab7
0.44121495 -2.5612984e-38 -0.16016783 -0.17463674 0.20949534 0.009720718 0.5408728 -0.11800822
0.051472396 0.13375074 -5.2581126e-09 0.09264232 0.4675286 6.803282e-05 0.19136405 -0.12648073
0.5400472 0.0034440525 -6.636336e-38 -5.434592e-09 0.110999346 -0.00053360296 5.399974e-38 0.16187471
0.001279215 -0.10642781 -0.18805267 -0.1622417 -0.00041894204 -0.15550801 -1.5933987e-38 -0.19450265
0.23438929 -5.155107e-21 0.006164736 -0.17611451 -0.2025123 0.43090513 -0.19137874 -0.12978558
0.40724605 0.05398479 -0.13264805 -0.14625774 -0.18123984 -0.16154727 0.47801098 0.021127943
-0.15189473 0.20773342 -0.021885445 0.5480981 -0.21510921 0.18746604 0.19645466 -0.017027643
0.11280194 0.17581181 -0.00013147536 0.095594205 4.434316e-06 -0.15389761 0.21458581 -0.0033927998
-0.48236108 -5.256325e-39 0.17965452 0.094873205 -0.36310023 -0.08189282 -0.48185435 0.116876
-0.25645715 -0.023368359 -0.0019444067 -0.33059084 -0.44132897 0.01482505 -0.06793826 -0.004926223
-0.38211197 0.032852374 1.322388e-38 -1.4814372e-05 -0.33514377 -6.2711865e-06 -1.6010465e-13 -0.069451116
0.0028932118 -0.04438959 0.08625151 0.08430019 -2.6632588e-07 0.11133894 -2.400202e-38 0.14601657
-0.055606928 1.5129525e-38 -0.006799561 0.09338553 0.11311102 -0.44956958 0.065528296 0.118943244
-0.082577385 -0.3818786 0.12288837 0.12647057 0.08421762 0.09069636 -0.439439 -0.01282147
0.05870913 0.04514233 -0.014004949 -0.51450133 0.08708077 -0.0031528417 -0.011654905 0.2565166
-0.30635446 -0.07121954 -0.00074287585 -0.31723416 -0.006627814 0.09327589 -0.21161337 0.0072397226
-0.32054293 1.3428156e-38 -0.11258448 0.03729819 0.15284318 0.052048165 -0.39041758 0.10580413
0.1333703 -0.1981576 0.0025255461 0.10269401 -0.35634306 0.0022326172 -0.114340976 -0.009537793
-0.43887815 0.04629131 2.4629169e-38 -3.5834844e-07 0.12288431 0.00037415608 3.6180752e-12 -0.14349303
-0.0015965344 0.08326602 0.014456233 0.04037858 -0.0049162274 0.07777589 5.227823e-38 0.003949855
-0.14869532 3.8624082e-38 0.0023882198 0.01766748 0.090949096 -0.3656251 0.025989547 0.004266334
-0.22199816 0.12182576 0.06828613 -0.051952843 0.03286904 0.01838329 -0.33488753 -0.0047534793
0.035664268 -0.1340331 0.006727261 -0.42866158 0.061812256 -0.17581464 -0.18108293 -0.053290367
0.15905191 -0.09608235 -0.00014593154 0.107233785 0.0065184813 0.03714942 -0.04286194 -2.7977916e-05

classifier.4.bias f4 [3]
00000000: e69d 85be c290 64be 192e dd3e
-0.2609703 -0.22320846 0.43199232
