models/exo_cnn.pth (torch, 26501 bytes, 10 tensors)

conv1.0.weight f4 [8, 1, 9]
0.1294749 0.27827975 0.18826157 -0.07907345 -0.24881296 0.08689264 0.035681613 -0.19031157
-0.38399994 -0.2994751 0.22062375 -0.16375326 -0.36347672 -0.4432251 -0.10166839 -0.27620736
-0.2729038 0.02001378 0.22243263 0.29442632 0.20120525 0.3253135 0.17627563 0.08030163
-0.03342599 -0.11605804 -0.030576522 0.30969006 -0.36153814 0.118376955 -0.2401904 0.16245279
0.28588742 -0.07603136 -0.17233646 -0.012203106 -0.28950763 -0.3741985 -0.32687014 -0.14298289
-0.08897651 -0.18689768 -0.37504813 -0.28888538 -0.17649722 0.32807195 -0.35561955 0.16885741
0.2130684 -0.19724973 -0.073617965 -0.19804244 -0.04350814 -0.18220636 -0.38282606 -0.38670683
-0.4168286 -0.04537817 -0.45607054 -0.20512368 -0.12813035 -0.3605999 -0.4060156 -0.28708312
-0.15354429 0.31845942 -0.23827106 -0.04850633 -0.459602 -0.3112952 -0.1204924 -0.26845375
00000000: 1195 043e af7a 8e3e a4c7 403e 43f1 a1bd
00000010: d3c8 7ebe c5f4 b13d e226 123d 09e1 42be
00000020: a49b c4be cd54 99be 31eb 613e efae 27be
00000030: 9f19 babe 66ee e2be 8437 d0bd 0d6b 8dbe
00000040: 0cba 8bbe f0f3 a33c 61c5 633e 0cbf 963e
00000050: c008 4e3e 7e8f a63e 9981 343e 2e75 a43d
00000060: b1e9 08bd d6af edbd 9d7b fabc b28f 9e3e
00000070: 871b b9be 9e6f f23d 79f4 75be 065a 263e
00000080: d65f 923e 54b6 9bbd f878 30be 89ef 47bc
00000090: 583a 94be f296 bfbe 865b a7be 1b6a 12be
000000a0: 5139 b6bd 1b62 3fbe 4f06 c0be c9e8 93be
000000b0: b0bb 34be 0cf9 a73e c413 b6be f5e8 2c3e
000000c0: 9a2e 5a3e d5fb 49be 04c5 96bd a3cb 4abe
000000d0: 9735 32bd 4e94 3abe c701 c4be 70fe c5be
000000e0: 8f6a d5be 76de 39bd 1482 e9be f10b 52be
000000f0: 9a34 03be 8da0 b8be 47e1 cfbe 8ffc 92be
00000100: b73a 1dbe 1d0d a33e 54fd 73be 93ae 46bd
00000110: f450 ebbe 1662 9fbe b8c4 f6bd c572 89be

conv1.0.bias f4 [8]
-0.19094467 -0.51451254 0.3640657 0.83880717 -0.037294045 -0.1753499 -0.28339958 -0.3876477
00000000: 0087 43be 18b7 03bf d266 ba3e 11bc 563f
00000010: a4c1 18bd ed8e 33be c019 91be c279 c6be

conv2.0.weight f4 [16, 8, 5]
0.097078785 0.11764982 0.071400516 -0.14499699 -0.023301544 -0.09791858 -0.10079548 0.104018465
0.16829802 -0.03332918 0.022313196 -0.009146749 -0.035676382 -0.04649167 -0.012438862 -0.0151271
-0.11792357 -0.086757585 -0.046702433 -0.0036170587 0.048656814 -0.018836495 -0.026892133 -0.19369856
0.07800803 0.13297439 -0.110879086 -0.0842151 -0.07500278 0.1003269 -0.041916065 0.08187107
-0.005006856 -0.1298119 0.011072587 -0.33680546 0.14015365 -0.020025482 -0.13149858 0.027343461
0.026765404 0.14903796 -0.16746734 -0.07359431 0.0789497 -0.08095523 -0.100116566 -0.24094242
0.15752418 -0.22313447 0.1591402 0.20273198 0.003295701 0.08312005 0.04318717 0.39143997
0.31710523 0.17291702 0.40692094 0.22277896 0.1356466 -0.020015439 -0.056908775 0.031377807
-0.08733146 0.1506433 0.057409022 0.010618175 0.044088867 0.0069417264 -0.13362165 0.08549785
0.058728836 0.090882264 -0.1530824 -0.22308014 -0.001583003 -0.009285613 0.13435258 -0.024738118
0.09772884 0.03345593 -0.066852525 0.040202674 0.0769076 -0.16145918 0.08642495 -0.17589289
-0.10195444 0.030630674 0.11882819 -0.006634771 -0.010485112 -0.109562464 0.040930662 0.36092046
0.25500983 0.24678195 0.45408309 0.15368393 0.094781086 0.12825158 -0.06771941 -0.13776927
0.07876627 0.005984657 -0.021086581 -0.026574774 -0.06662184 0.18073083 -0.18184885 0.10759963
-0.02176338 0.028043345 -0.022247832 0.10724447 -0.24571364 0.1278839 -0.2030442 -0.066127084
-0.116003595 -0.07921037 0.13999099 0.06331035 0.06125689 0.1369511 0.021493316 0.028700331
-0.16729102 0.017613051 0.124306284 0.019985322 -0.3108563 -0.13288088 -0.28333876 0.27641886
0.21984491 0.45361933 0.31926435 0.19489603 -0.056613915 0.03232222 0.09582292 -0.065487
-0.1686766 0.0029573673 0.109100915 0.103386894 0.22207439 -0.033641696 -0.10457726 0.117340766
-0.10246527 0.07234545 -0.18508804 -0.12128542 0.18498822 0.021894107 -0.06153566 0.0719926
-0.033749837 0.10994458 0.0057449974 -0.03172292 0.18871813 0.13673168 0.1863465 0.16745782
0.11424665 0.3164151 0.04718479 0.07058899 -0.16949101 -0.10472446 -0.099015936 -0.04507316
0.09045807 -0.15462635 0.020037314 -0.022871124 -0.08038081 0.1693183 0.1830096 -0.01413735
0.14819358 0.14852783 0.15613192 -0.010525557 0.14406241 -0.023872526 0.10496984 0.05350087
0.020364802 0.27278924 0.25484586 0.18106012 0.18215267 0.24105448 0.22121744 0.16794114
-0.2798513 0.018700961 0.18338896 0.2401098 0.31815547 -0.51646006 -0.33179864 -0.10520974
0.04792141 0.21698438 -0.19214213 -0.1439823 -0.09068997 0.16366832 0.25597227 -0.19207509
-0.15115985 -0.036463257 0.049058273 0.09219872 -0.21269616 -0.29904622 -0.032869972 0.1660627
0.17012578 -0.19200402 -0.035679355 0.08858558 0.1716908 0.25666407 -0.33798915 -0.17441957
-0.16372985 0.16032329 0.31735882 -0.34531897 -0.18660472 0.022301512 0.12093479 0.22948006
0.055290755 -0.13945958 -0.06988408 -0.16828467 -0.114003055 -0.04009112 -0.14195341 -0.102050275
-0.050132092 0.061163686 0.10446528 0.13763501 0.0843359 0.14536978 0.20561156 -0.00035290135
00000000: 3ed1 c63d 64f2 f03d 6f3a 923d 177a 14be
00000010: e1e2 bebc 8989 c8bd dc6d cebd a207 d53d
00000020: 5156 2c3e 2e84 08bd 2aca b63c 3fdc 15bc
00000030: 6621 12bd 0d6e 3ebd 5ecc 4bbc a8d7 77bc
00000040: ea81 f1bd f6ad b1bd 0d4b 3fbd 2d0c 6dbb
00000050: 5e4c 473d fe4e 9abc e44c dcbc ea58 46be
00000060: adc2 9f3d 702a 083e 9314 e3bd f778 acbd
00000070: 0f9b 99bd 3178 cd3d 2eb0 2bbd 05ac a73d
00000080: 8d10 a4bb 69ed 04be cc69 353c c471 acbe
00000090: 7084 0f3e 7b0c a4bc 90a7 06be 65ff df3c
000000a0: 1f43 db3c 689d 183e 8f7c 2bbe 9db8 96bd
000000b0: 61b0 a13d dbcb a5bd ea09 cdbd 9cb9 76be
000000c0: 054e 213e 5d7d 64be a6f5 223e f998 4f3e
000000d0: b0fc 573b d83a aa3d 08e5 303d d26a c83e
000000e0: 9e5b a23e 2911 313e f157 d03e 2b20 643e
000000f0: f1e6 0a3e 6bf7 a3bc 2d19 69bd 0486 003d
00000100: d6da b2bd 3d42 1a3e b925 6b3d dbf7 2d3c
00000110: 8796 343d 6c77 e33b 1dd4 08be 7f19 af3d
00000120: a68d 703d 7b20 ba3d a2c1 1cbe 1f6f 64be
00000130: c47c cfba af22 18bc b993 093e 98a7 cabc
00000140: 0f26 c83d 1609 093d fae9 88bd 8fab 243d
00000150: bb81 9d3d 8e55 25be 90ff b03d 441d 34be
00000160: 7dcd d0bd 2eed fa3c 325c f33d 7e68 d9bb
00000170: bfc9 2bbc 4962 e0bd e9a6 273d 91ca b83e
00000180: a690 823e 68b4 7c3e 947d e83e 525f 1d3e
00000190: 961c c23d 6254 033e 79b0 8abd 6313 0dbe
000001a0: 3650 a13d f11a c43b c4bd acbc 57b3 d9bc
000001b0: 0871 88bd 8111 393e 9636 3abe 325d dc3d
000001c0: 1e49 b2bc 28bb e53c 1641 b6bc fda2 db3d
000001d0: 5b9c 7bbe fff3 023e d2ea 4fbe a36d 87bd
000001e0: 4b93 edbd 0c39 a2bd cc59 0f3e dba8 813d
000001f0: 81e8 7a3d e93c 0c3e c012 b03c f51c eb3c
00000200: 564e 2bbe 3f49 903c 4b94 fe3d 42b8 a33c
00000210: 8f28 9fbe ed11 08be c711 91be c686 8d3e
00000220: 061f 613e cb40 e83e 9e76 a33e d392 473e
00000230: fee3 67bd 4e64 043d cf3e c43d 0c1e 86bd
00000240: 8fb9 2cbe 64d0 413b 4d70 df3d 82bc d33d
00000250: 7867 633e e0cb 09bd 9a2c d6bd 5b50 f03d
00000260: 50d9 d1bd da29 943d b887 3dbe 7e64 f8bd
00000270: 8d6d 3d3e 455b b33c d10c 7cbd db70 933d
00000280: 453d 0abd a02a e13d 8840 bc3b e4ef 01bd
00000290: 533f 413e 6403 0c3e 9ed1 3e3e 107a 2b3e
000002a0: 26fa e93d 2901 a23e d744 413d f690 903d
000002b0: 0d8f 2dbe c779 d6bd dec8 cabd a29e 38bd
000002c0: 1542 b93d 5f56 1ebe 4b25 a43c 395c bbbc
000002d0: b29e a4bd c761 2d3e de66 3b3e 58a0 67bc
000002e0: 0fc0 173e ae17 183e 0ce1 1f3e 6373 2cbc
000002f0: 1985 133e 5190 c3bc 6dfa d63d ba23 5b3d
00000300: 16d4 a63c 08ab 8b3e 287b 823e d367 393e
00000310: 3b86 3a3e fcd6 763e d386 623e c3f8 2b3e
00000320: ab48 8fbe c232 993c 51ca 3b3e 58df 753e
00000330: 46e5 a23e ba36 04bf 83e1 a9be 3478 d7bd
00000340: 3e49 443d 2731 5e3e e8c0 44be 1970 13be
00000350: aabb b9bd ab98 273e cc0e 833e 55af 44be
00000360: a6c9 1abe 7f5a 15bd 54f1 483d afd2 bc3d
00000370: 06cd 59be 961c 99be aaa2 06bd 570c 2a3e
00000380: 7435 2e3e b49c 44be 8424 12bd 5b6c b53d
00000390: b7cf 2f3e 7969 833e ea0c adbe 0b9b 32be
000003a0: cca8 27be ca2b 243e db7c a23e a6cd b0be
000003b0: 4f15 3fbe a9b1 b63c a9ac f73d d2fc 6a3e
000003c0: 8f78 623d 7ece 0ebe 621f 8fbd d152 2cbe
000003d0: 6f7a e9bd 9636 24bd 3c5c 11be bcff d0bd
000003e0: 4f57 4dbd c686 7a3d e5f1 d53d 31f0 0c3e
000003f0: 4db8 ac3d d1db 143e d68b 523e 9e05 b9b9

conv2.0.bias f4 [16]
-0.01177787 0.525497 0.6350465 0.47119454 -0.2814997 -0.007842759 0.21926081 -0.38440615
-0.24793242 -0.17427695 0.25194246 -0.02859422 -0.017248712 0.27340752 0.22619015 0.44294485
00000000: f8f7 40bc f986 063f 6892 223f 6940 f13e
00000010: bb20 90be ea7e 00bc e885 603e e2d0 c4be
00000020: ffe1 7dbe a875 32be 9afe 803e 6d3e eabc
00000030: 2c4d 8dbc 12fc 8b3e 649e 673e abc9 e23e

conv3.0.weight f4 [32, 16, 5]
-0.0884193 -0.056022204 -0.023367113 -0.04433805 -0.05142934 -0.32467267 -0.34538144 -0.4260175
-0.36255506 -0.5127457 -0.23331617 -0.31876814 -0.37321335 -0.3598416 -0.3917229 -0.28765583
-0.2814008 -0.31346664 -0.4917818 -0.4633329 0.04725955 0.13184126 0.13165921 0.15217671
0.20212355 0.29775196 0.5170607 0.71531916 1.3158501 1.077712 -0.24627508 -0.16709788
0.22062024 0.56421685 0.20722517 0.19075842 0.19006966 0.16145302 0.17905034 0.27510855
0.18483275 0.15532538 0.121984884 0.15995985 0.22312114 0.052741293 0.06857654 0.09211916
0.18491484 0.19178315 -0.07287246 -0.12642057 -0.21554425 -0.087593876 -0.16236487 -0.045391995
-0.0025426592 -0.006891974 0.07118403 0.07096363 0.0007555102 0.13931257 0.08872388 0.012660477
0.027290251 -0.0007215039 -0.03486833 -0.00073400186 -0.03841177 -0.02889176 -0.42161328 -0.054368168
0.553474 0.7416013 0.19664101 -0.3380275 -0.31858864 -0.26517454 -0.23903476 -0.2570328
0.00382996 0.0668085 0.0075265216 0.021642214 0.059925094 -0.11999564 -0.1647445 -0.06525579
-0.11379619 -0.059942856 -0.028897606 -0.091400795 -0.13803609 -0.08373633 -0.1330518 -0.09927474
-0.024183502 0.05020516 -0.02505919 0.03215653 -0.011349687 0.08391852 0.011940175 0.056098428
0.14541472 -0.35565385 -0.34588328 -0.29250976 -0.54623765 -0.2718466 -0.17453827 -0.014722598
-0.17318906 -0.03486129 -0.14675145 0.062711105 -0.0033260789 0.11044537 -0.086981535 0.06394582
0.04182884 0.014716708 -0.0054425127 -0.026282696 0.15112513 0.021465687 0.10251704 0.11247024
0.044761453 0.11166817 -0.16486959 -0.03899858 -0.04516425 -0.14147845 0.010278285 0.03407924
0.012879927 -0.038804024 -0.016343229 -0.078418 -0.06384258 -0.07940433 -0.13661788 -0.09045028
0.035134774 -0.1334666 -0.16512965 -0.066637754 0.0056176996 -0.0025721462 -0.16678283 -0.10164627
-0.15308699 -0.18472688 -0.16670866 -0.02266656 -0.031537525 -0.11330875 -0.18712592 -0.1779723
-0.030421961 -0.026697922 -0.0083584245 -0.036763743 0.012863394 -0.10484778 0.08442585 0.013289972
-0.061074615 -0.018987551 -0.020510271 0.07612368 -0.11388408 0.07954951 -0.017636245 -0.0915351
0.06982699 0.07020801 -0.055128366 0.00969884 -0.08793891 -0.116373174 0.010803832 -0.16363585
-0.16914356 -0.00520278 -0.13578176 0.012549224 -0.1200777 -0.003527849 0.054512687 0.049622662
-0.0014439463 -0.014365691 0.079944134 -0.07991559 0.007570631 0.0013200513 -0.080015875 -0.15161282
-0.17516427 -0.08057244 -0.021684822 -0.026428686 -0.04237096 -0.13754125 -0.16239567 -0.015045902
-0.12900923 -0.1518337 0.037432402 0.09165423 0.09707062 -0.076406315 -0.0752869 -0.05396245
0.0049967566 0.004267687 -0.03771699 -0.08648579 -0.14837928 0.0024176387 -0.14410928 0.033321857
-0.028335314 -0.041643895 0.026612736 -0.0014620486 -0.05882673 -0.0024556485 -0.03838061 0.024296058
0.06755911 -0.094788454 0.062192883 0.020380903 0.028665112 -0.039478485 -0.014973737 -0.02982493
-0.022534734 -0.0063643306 0.018330634 0.014484433 -0.040772293 -0.063692376 0.046229128 -0.09467401
0.086958736 0.071930856 -0.07200441 -0.10083681 -0.00215077 0.051262442 -0.09223549 0.04905553
00000000: 2e15 b5bd 8a77 65bd 636c bfbc d19b 35bd
00000010: 92a7 52bd 7f3b a6be d6d5 b0be f71e dabe
00000020: d1a0 b9be 4d43 03bf 6fea 6ebe 9435 a3be
00000030: d215 bfbe 283d b8be e78f c8be a047 93be
00000040: c413 90be b37e a0be d3ca fbbe f839 edbe
00000050: 3b93 413d 6501 073e acd1 063e 36d4 1b3e
00000060: 7af9 4e3e f272 983e 175e 043f 281f 373f
00000070: c76d a83f 78f2 893f 892f 7cbe b51b 2bbe
00000080: 46ea 613e 8470 103f d632 543e 2d56 433e
00000090: 9fa1 423e f153 253e f958 373e 07db 8c3e
000000a0: cc44 3d3e 9e0d 1f3e 36d3 f93d 84cc 233e
000000b0: de79 643e 4107 583d db71 8c3d f8a8 bc3d
000000c0: 515a 3d3e cd62 443e 283e 95bd 6574 01be
000000d0: a2b7 5cbe 6b64 b3bd fa42 26be f5ec 39bd
000000e0: bea2 26bb 11d6 e1bb efc8 913d 6155 913d
000000f0: 6e0d 463a f4a7 0e3e deb4 b53d e46d 4f3c
00000100: ce8f df3c 4f23 3dba 18d2 0ebd 086a 40ba
00000110: a955 1dbd 6aae ecbc b2dd d7be 28b1 5ebd
00000120: 79b0 0d3f 95d9 3d3f 435c 493e f111 adbe
00000130: 0d1e a3be f5c4 87be 87c5 74be ce99 83be
00000140: 1100 7b3b e5d2 883d 0aa1 f63b 034b b13c
00000150: 0474 753d 46c0 f5bd c8b2 28be d4a4 85bd
00000160: fa0d e9bd a486 75bd acba ecbc 5730 bbbd
00000170: 5559 0dbe f47d abbd bb3e 08be 8e50 cbbd
00000180: 7b1c c6bc eda3 4d3d ee48 cdbc 91b6 033d
00000190: 0af4 39bc 79dd ab3d b9a0 433c 77c7 653d
000001a0: 99e7 143e 4318 b6be 9d17 b1be d7c3 95be
000001b0: 3bd6 0bbf 7a2f 8bbe 29ba 32be 0d37 71bc
000001c0: 7958 31be b6ca 0ebd 0346 16be ae6e 803d
000001d0: 58fa 59bb 2f31 e23d 6023 b2bd 07f6 823d
000001e0: b854 2b3d 591e 713c 1b57 b2bb cf4e d7bc
000001f0: 8cc0 1a3e cfd8 af3c 74f4 d13d cc56 e63d
00000200: c957 373d 48b2 e43d 93d3 28be fabc 1fbd
00000210: 26fe 38bd badf 10be 4066 283c ac96 0b3d
00000220: 5406 533c f8f0 1ebd 3ce2 85bc 9e99 a0bd
00000230: e6bf 82bd bd9e a2bd 8fe5 0bbe ff3d b9bd
00000240: 7be9 0f3d 78ab 08be bf17 29be 6079 88bd
00000250: ae14 b83b 7491 28bb 1ec9 2abe eb2b d0bd
00000260: d6c2 1cbe 0b29 3dbe adb5 2abe 39af b9bc
00000270: 7e2d 01bd 6b0e e8bd f09d 3fbe 5f3e 36be
00000280: 7a37 f9bc 9ab5 dabc c6f1 08bc 9495 16bd
00000290: fcc0 523c 6fba d6bd 76e7 ac3d 2fbe 593c
000002a0: 6029 7abd c88b 9bbc 2805 a8bc bbe6 9b3d
000002b0: 0e3c e9bd daea a23d e379 90bc c176 bbbd
000002c0: 7401 8f3d 38c9 8f3d 48ce 61bd e2e7 1e3c
000002d0: 5119 b4bd 0f55 eebd 8e02 313c 2890 27be
000002e0: f833 2dbe 157c aabb 600a 0bbe 439b 4d3c
000002f0: 4ceb f5bd 7c33 67bb b248 5f3d 2241 4b3d
00000300: cc42 bdba 135e 6bbc c0b9 a33d c9aa a3bd
00000310: 0e13 f83b 9205 ad3a 5ddf a3bd 6440 1bbe
00000320: 435e 33be 2a03 a5bd 5ea4 b1bc f980 d8bc
00000330: 2c8d 2dbd 9dd7 0cbe 0d4b 26be 1683 76bc
00000340: ff1a 04be 4b7a 1bbe b852 193d 37b5 bb3d
00000350: f6cc c63d ea7a 9cbd 0530 9abd bb07 5dbd
00000360: d5bb a33b f4d7 8b3b 217d 1abd 761f b1bd
00000370: bdf0 17be 3f71 1e3b 6291 13be 807c 083d
00000380: 761f e8bc ca92 2abd f402 da3c 36a2 bfba
00000390: 4cf4 70bd f2ee 20bb fd34 1dbd 8708 c73c
000003a0: 6e5c 8a3d 7320 c2bd f7bd 7e3d daf5 a63c
000003b0: 19d3 ea3c 31b4 21bd 6854 75bc 6953 f4bc
000003c0: c39a b8bc e08b d0bb 202a 963c 1e50 6d3c
000003d0: d900 27bd 2671 82bd c15a 3d3d 73e4 c1bd
000003e0: 6c17 b23d 7c50 933d 0c77 93bd 8883 cebd
000003f0: eff3 0cbb 91f8 513d f6e5 bcbd 74ee 483d

conv3.0.bias f4 [32]
-0.39475346 0.020239431 0.07566237 0.02296423 -0.010284903 -0.086324655 -0.017333152 -0.00461231
0.05018117 -0.4245966 0.005187212 0.06808912 0.108638205 0.11241499 0.075936176 -0.00892166
-0.06290738 0.05741739 0.075020485 -0.13233823 -0.47821546 0.0683848 0.003455204 -0.5485126
0.028383812 -0.50571257 -0.4221062 0.09401907 0.053746074 -0.1875438 0.037158594 -0.06489004
00000000: 201d cabe 2acd a53c dff4 9a3d 7b1f bc3c
00000010: 0382 28bc fbca b0bd 41fe 8dbc dc22 97bb
00000020: c58a 4d3d ba64 d9be 7df9 a93b 4f72 8b3d
00000030: b57d de3d d539 e63d 6d84 9b3d 272c 12bc
00000040: 96d5 80bd 7f2e 6b3d 57a4 993d ac83 07be
00000050: a8d8 f4be 540d 8c3d b470 623b 526b 0cbf
00000060: 2b85 e83c 6176 01bf 4e1e d8be 128d c03d
00000070: d824 5c3d 7b0b 40be 9c33 183d 12e5 84bd

classifier.1.weight f4 [64, 32]
-0.103242464 0.14052741 0.07187874 -0.030890256 0.09234892 0.17225605 0.021848952 0.029226575
0.23465772 -0.12778899 0.021658788 0.03544021 0.09143968 0.047682326 0.007240606 0.028582478
-0.09523319 0.05395454 0.16523317 0.18621889 -0.68314576 0.009528131 0.13143985 -0.116426036
0.034213163 -1.0597645 -0.07739474 0.10952631 0.10596214 0.1310034 0.033543628 -0.0014553489
0.010964405 -0.021878358 -0.0079424055 -0.008644484 -0.01990896 -0.016462449 3.3148208e-38 -0.007886199
-0.007060237 0.010440883 -0.0035422896 -0.014014146 -0.029679162 -0.018834665 -0.012918422 -1.4245844e-38
-0.0012169046 -0.029163506 -0.030715784 -0.027321424 0.015309692 -3.083811e-07 -0.014454075 0.012090705
-0.016649466 0.058172863 0.011967049 -0.030673034 -0.031701185 0.009202695 -0.015697083 -0.0075911074
-1.1115649 -0.07759193 0.075070396 0.060537502 0.16548946 -0.06436871 0.0058812085 -0.13884506
-0.31981108 -1.0525771 0.03538858 0.09770011 -0.06930367 -0.0013214331 0.060258564 -0.0075718975
0.051640924 0.061170895 0.08411997 -0.02831878 -0.53396773 0.029853527 0.0057360395 -0.84628296
-0.06649955 0.05344191 -0.934936 0.11815179 0.04026348 -1.0568738 -0.0574056 -0.13980497
0.7401339 -0.14892493 -0.012082246 0.12162614 0.12440134 0.13212003 -0.00095551694 0.18657811
-0.006832311 0.6388218 -0.070684366 0.07670965 0.06824579 0.24136287 0.08776671 0.0063571585
0.1523774 -0.037414517 0.10769315 0.048997175 0.55643326 0.10747625 0.022777287 0.5781533
0.05154773 0.39439088 0.4271287 -0.17216156 0.09049525 0.3919581 0.07807278 -0.07736007
-0.10785838 0.06485583 -0.03579906 0.025212811 0.012345702 0.11734242 0.009074338 -0.014823985
0.22294934 -0.03864171 -0.08546581 -0.039769057 0.12489658 0.058618803 0.019187331 0.012799449
-0.054234207 0.06520892 0.1666926 0.14025217 -0.7670646 -0.032933217 0.087539926 -0.11955586
0.010542451 -0.9418362 -0.13464011 0.07899302 0.05557133 0.059666395 0.010848704 -0.009931297
-0.27683952 0.27058417 -0.09241806 -0.053399533 0.027184289 0.08106872 0.021288034 -0.06604065
0.27343455 -0.023874162 -0.0015853103 0.019733341 0.09140276 -0.11111865 -0.12200635 0.009957906
0.07536282 0.1763457 0.12607165 0.18898582 -0.61057246 -0.07225231 -0.07171308 -0.2806096
-0.01588572 -1.0589663 -0.2022856 0.074388765 0.20686278 0.1355804 -0.14660363 -0.14008324
-0.8719597 -0.12059138 -0.03425705 -0.00931092 0.029900657 -0.18790828 0.0018426819 -0.13490126
-0.13178621 -1.15315 -0.004278533 0.073427975 0.06641825 -0.11916974 -0.047484268 -0.010916957
-0.053396568 -0.12655991 0.16637903 -0.029804641 -0.6639477 -0.05476228 0.112772435 -0.84478927
-0.13962914 -0.026039114 -0.92441577 0.13812937 0.01873293 -1.1353034 -0.10440632 0.10258106
-0.052545115 0.065765955 0.19068335 0.022276055 0.02701371 0.14872772 -0.011012173 0.13742648
0.21667522 -0.17463925 0.09998687 -0.0625074 0.18582319 -0.040631752 -0.011179456 0.03857955
0.05989334 0.16965783 -0.015849857 0.021478837 -0.4908481 -0.009219959 0.21062128 -0.2596862
0.030594166 -1.0057765 -0.13236916 0.04843702 0.048395783 0.12516266 0.18852244 -0.102554135
00000000: c970 d3bd 6be6 0f3e 2935 933d 900d fdbc
00000010: 6e21 bd3d e463 303e 93fc b23c 926c ef3c
00000020: 1d4a 703e 1edb 02be c56d b13c c129 113d
00000030: ba44 bb3d 8b4e 433d 9b42 ed3b cd25 ea3c
00000040: 9e09 c3bd 70ff 5c3d e232 293e 2ab0 3e3e
00000050: a4e2 2ebf e11b 1c3c 2b98 063e c670 eebd
00000060: 1a23 0c3d 5da6 87bf 2281 9ebd 544f e03d
00000070: ae02 d93d c125 063e 0b65 093d 68c1 beba
00000080: 0ca4 333c 3e3a b3bc dd20 02bc 98a1 0dbc
00000090: 1e18 a3bc 42dc 86bc dc79 3401 1e35 01bc
000000a0: 9059 e7bb 3d10 2b3c c225 68bb 979b 65bc
000000b0: b721 f3bc 284b 9abc caa7 53bc 9e1f 9b80
000000c0: 8b80 9fba 4ee8 eebc ab9f fbbc 2ed1 dfbc
000000d0: 81d5 7a3c 938f a5b4 c9d0 6cbc 1818 463c
000000e0: 7664 88bc ab46 6e3d 7111 443c 0446 fbbc
000000f0: 1ad9 01bd e7c6 163c 2b97 80bc d3be f8bb
00000100: c247 8ebf 85e8 9ebd 82be 993d 2cf6 773d
00000110: 1276 293e bed3 83bd 27b7 c03b 662d 0ebe
00000120: 47be a3be d9ba 86bf 9ef3 103d ff16 c83d
00000130: 15ef 8dbd f033 adba afd1 763d ae1d f8bb
00000140: 6f85 533d 558e 7a3d 1747 ac3d c9fc e7bc
00000150: 1cb2 08bf 628f f43c 63f5 bb3b 00a6 58bf
00000160: eb30 88bd e7e5 5a3d f757 6fbf 91f9 f13d
00000170: 52eb 243d a447 87bf 2222 6bbd 0929 0fbe
00000180: 6a79 3d3f c77f 18be 9df4 45bc 2017 f93d
00000190: 21c6 fe3d 794a 073e a87b 7aba 550e 3f3e
000001a0: 94e1 dfbb d389 233f f7c2 90bd f319 9d3d
000001b0: 73c4 8b3d d427 773e 08bf b33d b64f d03b
000001c0: d208 1c3e f73f 19bd 3a8e dc3d 43b1 483d
000001d0: 6972 0e3f 821c dc3d 6f97 ba3c db01 143f
000001e0: b623 533d 9aed c93e 9db0 da3e 1f4b 30be
000001f0: 9355 b93d bbae c83e 9fe4 9f3d f56e 9ebd
00000200: dbe4 dcbd 22d3 843d 09a2 12bd 198b ce3c
00000210: a145 4a3c 3951 f03d 88ac 143c 4de0 72bc
00000220: d54c 643e c546 1ebd b308 afbd e1e4 22bd
00000230: c7c9 ff3d 451a 703d c02e 9d3c c8b4 513c
00000240: b024 5ebd 418c 853d 77b1 2a3e 449e 0f3e
00000250: 585e 44bf fbe4 06bd 2248 b33d b4d9 f4bd
00000260: 3fba 2c3c 2d1c 71bf 19df 09be 18c7 a13d
00000270: c39e 633d c064 743d c3be 313c e1b6 22bc
00000280: e9bd 8dbe 028a 8a3e ae45 bdbd 78b9 5abd
00000290: 96b1 de3c 5b07 a63d 3e64 ae3c 5240 87bd
000002a0: 9dff 8b3e bf93 c3bc 30ca cfba d1a7 a13c
000002b0: 5f31 bb3d 2d92 e3bd 77de f9bd 7c26 233c
000002c0: d257 9a3d f893 343e ed18 013e 8085 413e
000002d0: 7a4e 1cbf 05f9 93bd 4fde 92bd 10ac 8fbe
000002e0: c522 82bc 358c 87bf f523 4fbe 2359 983d
000002f0: d6d3 533e 97d5 0a3e 431f 16be fb71 0fbe
00000300: c038 5fbf 9df8 f6bd 1f51 0cbd d48c 18bc
00000310: 39f2 f43c 076b 40be 2586 f13a 8e23 0abe
00000320: f7f2 06be 6b9a 93bf f032 8cbb 6861 963d
00000330: 4b06 883d 440f f4bd dd7e 42bd 09dd 32bc
00000340: 5cb6 5abd ec98 01be 445f 2a3e dd28 f4bc
00000350: 7af8 29bf 6a4e 60bd 3cf5 e63d 1c44 58bf
00000360: f1fa 0ebe fb4f d5bc 83a6 6cbf c971 0d3e
00000370: cd75 993c 9f51 91bf fbd2 d5bd 0516 d23d
00000380: 8c39 57bd 4db0 863d 7f42 433e 467c b63c
00000390: db4b dd3c 144c 183e 676c 34bc 87b9 0c3e
000003a0: 1ce0 5d3e a2d4 32be ebc5 cc3d e103 80bd
000003b0: 6f48 3e3e 7b6d 26bd 092a 37bc 9705 1e3d
000003c0: b852 753d c8ba 2d3e 8fd7 81bc 63f4 af3c
000003d0: 7150 fbbe 500f 17bc 1bad 573e 97f5 84be
000003e0: 9ea0 fa3c 49bd 80bf c88b 07be e665 463d
000003f0: a83a 463d a42a 003e 070c 413e e707 d2bd

classifier.1.bias f4 [64]
0.05756348 -0.023846846 0.28824386 0.016071584 0.021100577 0.15481666 0.11929898 0.1782127
0.11542947 0.01228699 0.068181485 -0.007775206 -1.6822107e-30 0.108785205 0.019739734 -6.816614e-09
0.14701034 0.054199897 -0.077172995 -1.134852e-11 0.11575006 0.061665542 -0.019027326 -0.0052126027
-0.08349787 -0.0029690973 -0.00083203346 -3.6680413e-20 0.11511066 0.064412616 -3.9549854e-05 -7.8863676e-38
-0.050926957 -0.08873543 -0.0033677397 -0.0004863686 0.01578884 0.0077590067 0.08258792 -0.12344857
0.3702952 -0.06457423 -0.053875357 0.007661856 -0.062677175 0.09404617 -0.12119282 -0.008949997
-0.0016657193 -4.684176e-21 -6.001598e-08 0.0119230645 0.15272161 0.06656643 -0.010226221 -0.011299477
0.09658774 0.004470374 -4.6199992e-38 -7.434649e-08 0.038263056 -0.0050710062 -0.0122094825 0.15752377
00000000: afc7 6b3d 765a c3bc b394 933e 8ea8 833c
00000010: 1edb ac3c 4288 1e3e 0653 f43d 647d 363e
00000020: 4966 ec3d 5f4f 493c bca2 8b3d 28c7 febb
00000030: 267a 088e c7ca de3d 39b5 a13c 9237 eab1
00000040: e189 163e b600 5e3d e00c 9ebd 31a5 47ad
00000050: 5e0e ed3d 0295 7c3d 32df 9bbc 7bce aabb
00000060: ee00 abbd 3095 42bb d21c 5aba e637 2d9f
00000070: 23bf eb3d c3ea 833d 55e2 25b8 f6af d681
00000080: c998 50bd ecba b5bd 4cb5 5cbb 4aff feb9
00000090: 9957 813c 443f fe3b db23 a93d 9bd2 fcbd
000000a0: 5597 bd3e 7e3f 84bd 68ac 5cbd 4e10 fb3b
000000b0: e45c 80bd 479b c03d f133 f8bd 02a3 12bc
000000c0: 4454 daba 92f6 b09d 22e2 80b3 f558 433c
000000d0: 0e63 1c3e fb53 883d e18b 27bc 7121 39bc
000000e0: cbcf c53d 377c 923b 6489 7b81 6aa8 9fb3
000000f0: b9b9 1c3d af2a a6bb 480a 48bc e94d 213e

classifier.4.weight f4 [3, 64]
0.18793592 0.011534056 0.5813063 -0.61329186 0.164539 0.15847407 0.5432364 0.22353889
-0.034830134 0.4294916 -0.6724232 0.0055231615 -4.488238e-08 0.43132263 0.25624114 -0.0008634951
0.33865532 0.15988201 -0.28718567 -0.00017475967 0.19416432 -0.7427906 0.01755454 -0.040083133
-0.06014619 -0.008448917 -0.006003815 -1.105648e-39 0.14429435 -0.03369775 -0.005003286 -4.5948223e-16
-0.8387751 0.048351943 0.0029539438 2.1629093e-37 -0.817791 0.005095928 -0.6492259 -0.77889156
0.54254353 -0.54430974 -0.0353497 -0.8526643 -0.003477042 0.14939977 -0.72392863 0.0302528
0.0051387106 -0.00017044583 -2.69603e-38 -0.79992634 0.58635724 0.19027002 0.5488703 9.838301e-06
-0.8724443 0.42880008 6.2229484e-38 -0.0011713074 -0.08907035 -0.8221624 0.15049595 0.1793095
-0.37311503 -0.0027231905 -0.2747825 0.1182632 -0.3324985 -0.2536841 -0.4691304 -0.3415981
-0.048468415 -0.34164813 0.15275033 -0.007358637 0.0003443109 -0.52269524 -0.3492529 0.005496479
-0.40119246 -0.31904757 0.6736078 0.00014036678 -0.2709296 0.09442131 -0.017727798 0.033058684
0.5100112 -7.9318466e-05 0.0034251816 2.0886265e-38 -0.10949924 -0.017863186 -0.0065997406 7.0435713e-10
0.056997735 0.39540836 -0.0026292994 1.71021e-16 0.20080647 0.00024528842 0.15772445 0.12815359
-0.552591 0.092264675 0.3911691 0.13175058 0.0030423084 -0.37825596 0.057128377 -0.008375177
0.00047833312 1.971142e-25 -1.2749507e-38 0.13622329 -0.48464596 -0.36462682 -0.529949 -0.021952704
0.031700395 -0.40918213 6.312911e-39 -0.00028035665 0.5069248 0.1263119 -0.37133512 -0.044381328
0.09713056 -0.00037722313 -0.32465258 0.10225577 0.12306928 0.09341578 -0.40113443 0.09002113
0.04101759 -0.11018278 0.13272361 0.0046416293 -0.00024528848 -0.34881416 0.12276712 -0.0031322706
-0.2147097 0.0734291 -0.42460445 0.00023364277 0.111702316 0.074339144 0.015728865 -0.010145817
-0.5545863 0.01172864 0.00081437954 -2.4477433e-38 -0.20665634 0.00455954 0.009931032 -5.906443e-19
0.029125778 -0.43720877 0.0008568967 6.8524684e-29 0.18019459 0.009678672 0.13470045 0.11092774
-0.26943362 0.080271006 -0.3717731 0.116792 -0.0011433249 0.06271956 0.054242805 -0.0032894579
0.0028558124 8.3981926e-05 2.9449826e-38 0.12364796 -0.4464694 0.15160802 -0.32951632 0.021528546
0.018668203 -0.18955335 2.0919668e-38 0.0007896598 -0.48902428 0.108699314 0.1405819 -0.040647168
00000000: 4672 403e 56f9 3c3c 7dd0 143f b200 1dbf
00000010: e97c 283e 0747 223e 8a11 0b3f 61e7 643e
00000020: 0baa 0ebd 53e6 db3e ed23 2cbf a3fb b43b
00000030: b3c4 40b3 52d6 dc3e 0a32 833e 2d5c 62ba
00000040: 3b64 ad3e 1cb8 233e 000a 93be b13f 37b9
00000050: 03d3 463e 8627 3ebf 8ace 8f3c 362e 24bd
00000060: da5b 76bd 546d 0abc a7bb c4bb 190a 0c80
00000070: e6c1 133e a706 0abd 9bf2 a3bb ce6f 04a6
00000080: f7b9 56bf b00c 463d f496 413b 3233 9302
00000090: c05a 51bf befb a63b ab33 26bf 7065 47bf
000000a0: 22e4 0a3f e257 0bbf d9ca 10bd 3548 5abf
000000b0: 16df 63bb 41fc 183e 6353 39bf b8d4 f73c
000000c0: a162 a83b b4b9 32b9 2cc9 1281 f9c7 4cbf
000000d0: 821b 163f 25d6 423e c482 0c3f 2e0f 2537
000000e0: 8258 5fbf af8b db3e 9f67 a901 8e86 99ba
000000f0: 846a b6bd 3c79 52bf 9c1b 1a3e e99c 373e
00000100: ef08 bfbe 8e77 32bb 4bb0 8cbe fa33 f23d
00000110: 3e3d aabe e2e2 81be dc31 f0be f2e5 aebe
00000120: d186 46bd 81ec aebe 956a 1c3e b920 f1bb
00000130: a084 b439 5bcf 05bf 47d1 b2be cf1b b43b
00000140: 1969 cdbe 345a a3be 9071 2c3f 6c2f 1339
00000150: 49b7 8abe f65f c13d e339 91bc 8b68 073d
00000160: 1890 023f c757 a6b8 0379 603b 696e e300
00000170: 2341 e0bd d155 92bc a342 d8bb ba9c 4130
00000180: 7576 693d f772 ca3e 5350 2cbb 7d2c 4525
00000190: 36a0 4d3e 0e9a 8039 8582 213e b23a 033e
000001a0: 9b76 0dbf 43f5 bc3d 5147 c83e a0e9 063e
000001b0: 7761 473b c4aa c1be 72ff 693d 0a38 09bc
000001c0: c9c8 fa39 fc03 7416 70d4 8a80 1e7e 0b3e
000001d0: 8423 f8be 5eb0 babe bdaa 07bf 28d6 b3bc
000001e0: 46d8 013d 5280 d1be d4bd 4400 d5fc 92b9
000001f0: d3c5 013f e857 013e a31f bebe 32c9 35bd
00000200: 63ec c63d 08c6 c5b9 dd38 a6be 796b d13d
00000210: bf0b fc3d c650 bf3d 7e61 cdbe 005d b83d
00000220: 0f02 283d 82a7 e1bd b3e8 073e cf18 983b
00000230: 109a 80b9 c597 b2be 546d fb3d c846 4dbb
00000240: dcdc 5bbe ff61 963d c165 d9be 01fe 7439
00000250: 2fc4 e43d 1f3f 983d d2d9 803c a43a 26bc
00000260: 5ef9 0dbf 7b29 403c 167c 553a 9044 0581
00000270: b89d 53be 3268 953b c4b5 223c d253 2ea1
00000280: 2f99 ee3c d4d9 dfbe 5da1 603a 10bb ad10
00000290: ee84 383e 4b93 1e3c eaee 093e 152e e33d
000002a0: 34f3 89be 2065 a43d 0b59 bebe a530 ef3d
000002b0: 9edb 95ba 1d73 803d b42d 5e3d f293 57bb
000002c0: 9528 3b3b 741f b038 1157 2001 243b fd3d
000002d0: a397 e4be 223f 1b3e 5db6 a8be a25c b03c
000002e0: 0fee 983c 461a 42be 86cb e300 2c01 4f3a
000002f0: 6461 fabe bf9d de3d b4f4 0f3e a57d 26bd

classifier.4.bias f4 [3]
0.6161431 -0.47260734 -0.0025479514
00000000: 8ebb 1d3f 97f9 f1be 88fb 26bb
